Run ID,Num Neurons,Embedding Size,Learning Rate,Num Heads,ROC-AUC,Precision,Recall,F1,#Edges in GT,#Predicted edges,Top 20% overlap,#Overlapping edges,Model
8b04af3e-3d11-4a78-915a-aa524e530b47,64,4,0.005,4,0.6557789760914761,0.041353383458646614,0.6346153846153846,0.07764705882352942,260,3990,117,[0 0 0 ... 0 1 0],"GAT_VGAE(
  (gat1): GATConv(110, 64, heads=4)
  (gat2): GATConv(256, 4, heads=1)
  (decoder): Linear(in_features=4, out_features=12100, bias=True)
)"
ca65e8b0-4462-4e2d-bf3a-ae7aad4f1a5c,64,4,0.005,4,0.6738662941787941,0.04397559735638028,0.6653846153846154,0.08249880782069623,260,3934,127,[0 0 0 ... 0 0 0],"GAT_VGAE(
  (gat1): GATConv(110, 64, heads=4)
  (gat2): GATConv(256, 4, heads=1)
  (decoder): Linear(in_features=4, out_features=12100, bias=True)
)"
d89d47dd-e807-41ee-824e-e3753ec9b0e6,39,4,1.4663232141641776e-05,3,0.49748570686070687,0.02127659574468085,0.49615384615384617,0.040803416099952555,260,6063,0,0,"GAT_VGAE(
  (gat1): GATConv(110, 39, heads=3)
  (gat2): GATConv(117, 4, heads=1)
  (decoder): Linear(in_features=4, out_features=12100, bias=True)
)"
cef7ccae-a1cf-449d-8017-b24a856e0343,32,7,0.005637976178026419,3,0.7245452182952183,0.054778554778554776,0.7230769230769231,0.10184182015167931,260,3432,0,0,"GAT_VGAE(
  (gat1): GATConv(110, 32, heads=3)
  (gat2): GATConv(96, 7, heads=1)
  (decoder): Linear(in_features=7, out_features=12100, bias=True)
)"
406627d7-156e-4107-b45a-24283ee92f30,103,7,3.0804200411586705e-05,6,0.5041190228690229,0.021836972828804802,0.5038461538461538,0.04185972200031954,260,5999,0,0,"GAT_VGAE(
  (gat1): GATConv(110, 103, heads=6)
  (gat2): GATConv(618, 7, heads=1)
  (decoder): Linear(in_features=7, out_features=12100, bias=True)
)"
b4f373e9-74d1-40d1-80a8-f3781b65381b,114,5,0.00018025849026632345,7,0.5272739085239084,0.023870856946591103,0.5346153846153846,0.04570113430872925,260,5823,0,0,"GAT_VGAE(
  (gat1): GATConv(110, 114, heads=7)
  (gat2): GATConv(798, 5, heads=1)
  (decoder): Linear(in_features=5, out_features=12100, bias=True)
)"
fcfecfab-8c09-414f-858c-a183832637ac,120,4,4.7845613950498866e-05,8,0.5034628378378379,0.0217828418230563,0.5,0.04174694926140013,260,5968,0,0,"GAT_VGAE(
  (gat1): GATConv(110, 120, heads=8)
  (gat2): GATConv(960, 4, heads=1)
  (decoder): Linear(in_features=4, out_features=12100, bias=True)
)"
5d38586a-3af9-494b-8b41-26c8cc35f6d8,106,8,0.0041953498987376886,8,0.7134745322245323,0.052451539338654506,0.7076923076923077,0.09766454352441614,260,3508,0,0,"GAT_VGAE(
  (gat1): GATConv(110, 106, heads=8)
  (gat2): GATConv(848, 8, heads=1)
  (decoder): Linear(in_features=8, out_features=12100, bias=True)
)"
236b0006-7758-4acc-ae6c-d97a5a75b4d7,79,6,0.00012167505487541876,5,0.4829424376299376,0.02002692696061932,0.4576923076923077,0.03837471783295711,260,5942,0,0,"GAT_VGAE(
  (gat1): GATConv(110, 79, heads=5)
  (gat2): GATConv(395, 6, heads=1)
  (decoder): Linear(in_features=6, out_features=12100, bias=True)
)"
234a61b3-8236-4a44-8e68-34ea24f2b359,41,4,0.004118762810599483,6,0.6553209459459459,0.040363028421304036,0.65,0.07600629637958174,260,4187,0,0,"GAT_VGAE(
  (gat1): GATConv(110, 41, heads=6)
  (gat2): GATConv(246, 4, heads=1)
  (decoder): Linear(in_features=4, out_features=12100, bias=True)
)"
23a90e4d-e99a-4f88-aa1a-6a4cc3249005,67,7,3.1452356125174024e-05,7,0.5066138253638254,0.022045416873860434,0.5115384615384615,0.042269187986651836,260,6033,0,0,"GAT_VGAE(
  (gat1): GATConv(110, 67, heads=7)
  (gat2): GATConv(469, 7, heads=1)
  (decoder): Linear(in_features=7, out_features=12100, bias=True)
)"
14ee947b-efe2-4ea4-882f-281958ffd312,127,5,0.0014521848260481251,8,0.6046939968814968,0.032212603180994566,0.6153846153846154,0.0612205854218481,260,4967,0,0,"GAT_VGAE(
  (gat1): GATConv(110, 127, heads=8)
  (gat2): GATConv(1016, 5, heads=1)
  (decoder): Linear(in_features=5, out_features=12100, bias=True)
)"
506862da-dbe1-469c-becf-5664301515dc,57,8,0.0008317153169031521,2,0.5709102130977131,0.028477334366524602,0.5653846153846154,0.05422353375138325,260,5162,0,0,"GAT_VGAE(
  (gat1): GATConv(110, 57, heads=2)
  (gat2): GATConv(114, 8, heads=1)
  (decoder): Linear(in_features=8, out_features=12100, bias=True)
)"
09fdb0eb-57a1-45a1-8fc8-76cb4192d167,98,2,0.008989346522050006,4,0.7254742723492724,0.05513196480938416,0.7230769230769231,0.10245231607629428,260,3410,0,0,"GAT_VGAE(
  (gat1): GATConv(110, 98, heads=4)
  (gat2): GATConv(392, 2, heads=1)
  (decoder): Linear(in_features=2, out_features=12100, bias=True)
)"
897dcfd9-a013-410e-9c11-b89aff49ddf6,94,2,0.009214338874263999,4,0.725051975051975,0.05497076023391813,0.7230769230769231,0.10217391304347827,260,3420,0,0,"GAT_VGAE(
  (gat1): GATConv(110, 94, heads=4)
  (gat2): GATConv(376, 2, heads=1)
  (decoder): Linear(in_features=2, out_features=12100, bias=True)
)"
cdf7dc4d-5eb4-4304-a7e6-dbaf23b3b824,94,2,0.008544516970434412,4,0.7254742723492724,0.05513196480938416,0.7230769230769231,0.10245231607629428,260,3410,0,0,"GAT_VGAE(
  (gat1): GATConv(110, 94, heads=4)
  (gat2): GATConv(376, 2, heads=1)
  (decoder): Linear(in_features=2, out_features=12100, bias=True)
)"
f6010625-2df8-46a0-b037-3e13aa283185,90,2,0.0014126968133273984,4,0.5864182692307692,0.03015372487189594,0.5884615384615385,0.05736782902137233,260,5074,0,0,"GAT_VGAE(
  (gat1): GATConv(110, 90, heads=4)
  (gat2): GATConv(360, 2, heads=1)
  (decoder): Linear(in_features=2, out_features=12100, bias=True)
)"
d86f100b-e907-4d33-8890-f27607502519,80,3,0.000553640529826267,4,0.5096088877338878,0.022320667916169705,0.5038461538461538,0.04274759340838636,260,5869,0,0,"GAT_VGAE(
  (gat1): GATConv(110, 80, heads=4)
  (gat2): GATConv(320, 3, heads=1)
  (decoder): Linear(in_features=3, out_features=12100, bias=True)
)"
767668aa-7619-4d52-868b-f22cd49c8a3c,99,3,0.0020696804063926847,5,0.6394035862785862,0.03671891775821344,0.6576923076923077,0.06955460646735814,260,4657,0,0,"GAT_VGAE(
  (gat1): GATConv(110, 99, heads=5)
  (gat2): GATConv(495, 3, heads=1)
  (decoder): Linear(in_features=3, out_features=12100, bias=True)
)"
fc4cb637-8024-4f07-b4a9-690a9df498f9,68,2,0.009850672269232988,2,0.7254742723492724,0.05513196480938416,0.7230769230769231,0.10245231607629428,260,3410,0,0,"GAT_VGAE(
  (gat1): GATConv(110, 68, heads=2)
  (gat2): GATConv(136, 2, heads=1)
  (decoder): Linear(in_features=2, out_features=12100, bias=True)
)"
6d735cfc-a2bc-4130-82d6-ee2f5621507b,88,3,0.0026312101212118614,3,0.6742463617463617,0.04407643312101911,0.6653846153846154,0.08267622461170848,260,3925,0,0,"GAT_VGAE(
  (gat1): GATConv(110, 88, heads=3)
  (gat2): GATConv(264, 3, heads=1)
  (decoder): Linear(in_features=3, out_features=12100, bias=True)
)"
8438a10e-81ee-4042-9ce5-6b398e5f2a93,111,3,0.00037513987977879206,5,0.5313896829521829,0.024300052826201797,0.5307692307692308,0.04647247011281361,260,5679,0,0,"GAT_VGAE(
  (gat1): GATConv(110, 111, heads=5)
  (gat2): GATConv(555, 3, heads=1)
  (decoder): Linear(in_features=3, out_features=12100, bias=True)
)"
e1b84a6d-bd95-41c7-9b48-d6c7373ce03b,69,2,0.0008505600422555927,4,0.5539728430353431,0.026508226691042046,0.5576923076923077,0.0506108202443281,260,5470,0,0,"GAT_VGAE(
  (gat1): GATConv(110, 69, heads=4)
  (gat2): GATConv(276, 2, heads=1)
  (decoder): Linear(in_features=2, out_features=12100, bias=True)
)"
8020d7cf-a626-45c4-84f8-429413819595,58,2,0.009240681057917045,2,0.7254742723492724,0.05513196480938416,0.7230769230769231,0.10245231607629428,260,3410,0,0,"GAT_VGAE(
  (gat1): GATConv(110, 58, heads=2)
  (gat2): GATConv(116, 2, heads=1)
  (decoder): Linear(in_features=2, out_features=12100, bias=True)
)"
fb788da2-82a1-4075-a77e-88200db3d598,68,2,0.009225322898506891,2,0.7254742723492724,0.05513196480938416,0.7230769230769231,0.10245231607629428,260,3410,0,0,"GAT_VGAE(
  (gat1): GATConv(110, 68, heads=2)
  (gat2): GATConv(136, 2, heads=1)
  (decoder): Linear(in_features=2, out_features=12100, bias=True)
)"
6f927d95-cce5-4ce1-a845-2bef0fc0b67a,83,3,0.0038272818475027994,3,0.6730899168399168,0.043010752688172046,0.676923076923077,0.08088235294117647,260,4092,0,0,"GAT_VGAE(
  (gat1): GATConv(110, 83, heads=3)
  (gat2): GATConv(249, 3, heads=1)
  (decoder): Linear(in_features=3, out_features=12100, bias=True)
)"
12a2a204-827a-4e03-8439-3714295aa04d,96,2,0.007026558161525016,3,0.7254742723492724,0.05513196480938416,0.7230769230769231,0.10245231607629428,260,3410,0,0,"GAT_VGAE(
  (gat1): GATConv(110, 96, heads=3)
  (gat2): GATConv(288, 2, heads=1)
  (decoder): Linear(in_features=2, out_features=12100, bias=True)
)"
3de91287-2ad3-4fbc-8674-2d2ba9dd2a53,75,4,0.003244363912812767,6,0.6897089397089398,0.0472630173564753,0.6807692307692308,0.08838951310861423,260,3745,0,0,"GAT_VGAE(
  (gat1): GATConv(110, 75, heads=6)
  (gat2): GATConv(450, 4, heads=1)
  (decoder): Linear(in_features=4, out_features=12100, bias=True)
)"
b529f2dd-5bc3-4953-89ec-49c9903f755c,55,3,0.0019365214373004615,4,0.6052202442827443,0.0323960880195599,0.6115384615384616,0.06153250773993808,260,4908,0,0,"GAT_VGAE(
  (gat1): GATConv(110, 55, heads=4)
  (gat2): GATConv(220, 3, heads=1)
  (decoder): Linear(in_features=3, out_features=12100, bias=True)
)"
50d34c86-ac30-4a67-b4dc-28dd42e90aec,85,2,0.0055165662835959875,2,0.7038006756756756,0.049945115257958285,0.7,0.0932377049180328,260,3644,0,0,"GAT_VGAE(
  (gat1): GATConv(110, 85, heads=2)
  (gat2): GATConv(170, 2, heads=1)
  (decoder): Linear(in_features=2, out_features=12100, bias=True)
)"
c490a4f2-0bab-46c8-9aa6-9d0ff87e1bc5,106,3,0.0010970850050622213,5,0.5305678274428274,0.024194952132288946,0.5346153846153846,0.0462947543713572,260,5745,0,0,"GAT_VGAE(
  (gat1): GATConv(110, 106, heads=5)
  (gat2): GATConv(530, 3, heads=1)
  (decoder): Linear(in_features=3, out_features=12100, bias=True)
)"
a131b21d-be59-42b6-bc3c-67addd3be2fa,51,4,1.2024436661009963e-05,3,0.4909790800415801,0.020738079686479425,0.48846153846153845,0.039786967418546364,260,6124,0,0,"GAT_VGAE(
  (gat1): GATConv(110, 51, heads=3)
  (gat2): GATConv(153, 4, heads=1)
  (decoder): Linear(in_features=4, out_features=12100, bias=True)
)"
afa1eea7-f44b-43c5-8c9a-24e19fa8fb28,72,2,0.00549555333865537,4,0.7132406444906445,0.052783386212864145,0.7038461538461539,0.0982023074859136,260,3467,0,0,"GAT_VGAE(
  (gat1): GATConv(110, 72, heads=4)
  (gat2): GATConv(288, 2, heads=1)
  (decoder): Linear(in_features=2, out_features=12100, bias=True)
)"
5e6b5dc5-b6dc-40c3-b0f1-b26451b21cf0,63,2,0.00908461812481394,2,0.7254742723492724,0.05513196480938416,0.7230769230769231,0.10245231607629428,260,3410,0,0,"GAT_VGAE(
  (gat1): GATConv(110, 63, heads=2)
  (gat2): GATConv(126, 2, heads=1)
  (decoder): Linear(in_features=2, out_features=12100, bias=True)
)"
284a6d38-232a-4519-9134-e78c0a9d02a9,47,2,0.006308393324612197,2,0.6963032744282744,0.04794701986754967,0.6961538461538461,0.08971499380421313,260,3775,0,0,"GAT_VGAE(
  (gat1): GATConv(110, 47, heads=2)
  (gat2): GATConv(94, 2, heads=1)
  (decoder): Linear(in_features=2, out_features=12100, bias=True)
)"
bc2ba977-9c0b-47ee-9092-2c56c3beb199,60,3,0.009726137986237142,2,0.7254742723492724,0.05513196480938416,0.7230769230769231,0.10245231607629428,260,3410,0,0,"GAT_VGAE(
  (gat1): GATConv(110, 60, heads=2)
  (gat2): GATConv(120, 3, heads=1)
  (decoder): Linear(in_features=3, out_features=12100, bias=True)
)"
70bc60b9-2380-47d4-a3ff-6f49400fe98e,76,2,0.0027087310877700567,3,0.5823317307692308,0.030134158926728587,0.5615384615384615,0.05719882468168462,260,4845,0,0,"GAT_VGAE(
  (gat1): GATConv(110, 76, heads=3)
  (gat2): GATConv(228, 2, heads=1)
  (decoder): Linear(in_features=2, out_features=12100, bias=True)
)"
c6a55f44-02c7-4ad8-9fae-4d25218341e1,38,6,0.005643679724268752,2,0.7255165020790021,0.0551481372836609,0.7230769230769231,0.10248023984736986,260,3409,0,0,"GAT_VGAE(
  (gat1): GATConv(110, 38, heads=2)
  (gat2): GATConv(76, 6, heads=1)
  (decoder): Linear(in_features=6, out_features=12100, bias=True)
)"
873648f9-9553-48b7-828f-ef1f95284837,33,6,0.00508742181131079,3,0.725389812889813,0.05509964830011723,0.7230769230769231,0.10239651416122005,260,3412,0,0,"GAT_VGAE(
  (gat1): GATConv(110, 33, heads=3)
  (gat2): GATConv(99, 6, heads=1)
  (decoder): Linear(in_features=6, out_features=12100, bias=True)
)"
78585116-d6fa-4924-8954-9015e51b3cbe,102,6,0.00021252729236410778,3,0.5076858108108108,0.022154055896387186,0.5,0.04242819843342036,260,5868,0,0,"GAT_VGAE(
  (gat1): GATConv(110, 102, heads=3)
  (gat2): GATConv(306, 6, heads=1)
  (decoder): Linear(in_features=6, out_features=12100, bias=True)
)"
ea694c85-6899-40b9-9d7c-97ccec5c0fd5,113,5,6.141181478697452e-05,4,0.5169860966735966,0.022945841066306732,0.5230769230769231,0.04396314853725554,260,5927,0,0,"GAT_VGAE(
  (gat1): GATConv(110, 113, heads=4)
  (gat2): GATConv(452, 5, heads=1)
  (decoder): Linear(in_features=5, out_features=12100, bias=True)
)"
ae1e7f87-0314-41a4-b5c2-a149e980d9d4,44,7,0.004277199730018864,5,0.7241651507276508,0.054635280441732055,0.7230769230769231,0.10159416373952986,260,3441,0,0,"GAT_VGAE(
  (gat1): GATConv(110, 44, heads=5)
  (gat2): GATConv(220, 7, heads=1)
  (decoder): Linear(in_features=7, out_features=12100, bias=True)
)"
f01c2fa7-09b8-457f-beb1-2d571612be84,34,6,0.006510997313363252,6,0.7227066008316009,0.054534849810440364,0.7192307692307692,0.10138248847926268,260,3429,0,0,"GAT_VGAE(
  (gat1): GATConv(110, 34, heads=6)
  (gat2): GATConv(204, 6, heads=1)
  (decoder): Linear(in_features=6, out_features=12100, bias=True)
)"
c8582869-80ad-4e73-83a1-88e8b43686cf,91,7,0.0069985186685629155,2,0.7254742723492724,0.05513196480938416,0.7230769230769231,0.10245231607629428,260,3410,0,0,"GAT_VGAE(
  (gat1): GATConv(110, 91, heads=2)
  (gat2): GATConv(182, 7, heads=1)
  (decoder): Linear(in_features=7, out_features=12100, bias=True)
)"
816f8722-28f5-4fe5-8496-9ceee45c9209,37,5,0.0030850554300024063,2,0.7200656185031185,0.05399129172714078,0.7153846153846154,0.10040485829959514,260,3445,0,0,"GAT_VGAE(
  (gat1): GATConv(110, 37, heads=2)
  (gat2): GATConv(74, 5, heads=1)
  (decoder): Linear(in_features=5, out_features=12100, bias=True)
)"
7530a0d3-7461-4aa7-9686-6acb2506212f,50,4,0.009899090141701173,7,0.7254742723492724,0.05513196480938416,0.7230769230769231,0.10245231607629428,260,3410,0,0,"GAT_VGAE(
  (gat1): GATConv(110, 50, heads=7)
  (gat2): GATConv(350, 4, heads=1)
  (decoder): Linear(in_features=4, out_features=12100, bias=True)
)"
244b35df-f73e-4620-94f3-abfc2746be48,65,2,0.004429723777892451,2,0.7123992983367984,0.051675977653631286,0.7115384615384616,0.09635416666666667,260,3580,0,0,"GAT_VGAE(
  (gat1): GATConv(110, 65, heads=2)
  (gat2): GATConv(130, 2, heads=1)
  (decoder): Linear(in_features=2, out_features=12100, bias=True)
)"
935bec40-7cf1-4e37-945e-e3097fa60895,40,6,0.0072621051102948414,3,0.7254320426195426,0.05511580181764878,0.7230769230769231,0.10242440751838736,260,3411,0,0,"GAT_VGAE(
  (gat1): GATConv(110, 40, heads=3)
  (gat2): GATConv(120, 6, heads=1)
  (decoder): Linear(in_features=6, out_features=12100, bias=True)
)"
637bcb13-fc56-4903-9f3b-7c4584e198c4,57,4,0.0019510238729397488,2,0.6059511434511434,0.031730951928557856,0.6423076923076924,0.060474379866014845,260,5263,0,0,"GAT_VGAE(
  (gat1): GATConv(110, 57, heads=2)
  (gat2): GATConv(114, 4, heads=1)
  (decoder): Linear(in_features=4, out_features=12100, bias=True)
)"
26ee7288-5d6c-4bbd-9f5f-e4dc250c8d88,118,3,0.0037541484055956258,3,0.646352001039501,0.03789380920907689,0.6615384615384615,0.07168160033340279,260,4539,0,0,"GAT_VGAE(
  (gat1): GATConv(110, 118, heads=3)
  (gat2): GATConv(354, 3, heads=1)
  (decoder): Linear(in_features=3, out_features=12100, bias=True)
)"
61646d56-c4b1-49f8-9091-0c19c0b34750,95,7,0.002258831377653294,2,0.6452702702702703,0.03819209039548022,0.65,0.07214514407684099,260,4425,0,0,"GAT_VGAE(
  (gat1): GATConv(110, 95, heads=2)
  (gat2): GATConv(190, 7, heads=1)
  (decoder): Linear(in_features=7, out_features=12100, bias=True)
)"
be191cc6-b394-405d-a703-65db91428ab3,84,2,2.191093711928275e-05,4,0.4992171257796258,0.021421454666223846,0.49615384615384617,0.041069723018147083,260,6022,0,0,"GAT_VGAE(
  (gat1): GATConv(110, 84, heads=4)
  (gat2): GATConv(336, 2, heads=1)
  (decoder): Linear(in_features=2, out_features=12100, bias=True)
)"
1d030dfa-bf0d-4cb5-bb00-f8bb739da5d8,32,32,0.0007740924059274668,12,0.543204261954262,0.025327510917030567,0.5576923076923077,0.04845446950710108,260,5725,0,0,"GAT_VGAE(
  (gat1): GATConv(110, 32, heads=12)
  (gat2): GATConv(384, 32, heads=1)
  (decoder): Linear(in_features=32, out_features=12100, bias=True)
)"
34dfb006-de0f-446e-a7e4-3c02184ffb2d,1024,16,0.000315213378719837,12,0.5171680093555093,0.023022847100175745,0.5038461538461538,0.04403361344537815,260,5690,0,0,"GAT_VGAE(
  (gat1): GATConv(110, 1024, heads=12)
  (gat2): GATConv(12288, 16, heads=1)
  (decoder): Linear(in_features=16, out_features=12100, bias=True)
)"
c6431c03-b6d8-40c5-acab-6f29ffb82629,512,16,0.0005079542614466868,16,0.5188084719334719,0.0232387923147301,0.48846153846153845,0.04436681222707423,260,5465,0,0,"GAT_VGAE(
  (gat1): GATConv(110, 512, heads=16)
  (gat2): GATConv(8192, 16, heads=1)
  (decoder): Linear(in_features=16, out_features=12100, bias=True)
)"
13f468f8-17d2-42c9-abe3-c6d809d5d47c,64,128,7.368054264029033e-05,16,0.5108075623700624,0.022452201368181022,0.49230769230769234,0.04294581446066096,260,5701,0,0,"GAT_VGAE(
  (gat1): GATConv(110, 64, heads=16)
  (gat2): GATConv(1024, 128, heads=1)
  (decoder): Linear(in_features=128, out_features=12100, bias=True)
)"
318b2b4f-34c6-4eda-88f7-cf5ef865202f,32,64,5.6287227143464944e-05,6,0.5154203482328482,0.0228240504173054,0.5153846153846153,0.04371228184635459,260,5871,0,0,"GAT_VGAE(
  (gat1): GATConv(110, 32, heads=6)
  (gat2): GATConv(192, 64, heads=1)
  (decoder): Linear(in_features=64, out_features=12100, bias=True)
)"
cd51002b-8255-4421-bc46-b1370f0fa95c,64,16,2.550535649903136e-05,2,0.4901962058212058,0.02066929133858268,0.4846153846153846,0.039647577092511016,260,6096,0,0,"GAT_VGAE(
  (gat1): GATConv(110, 64, heads=2)
  (gat2): GATConv(128, 16, heads=1)
  (decoder): Linear(in_features=16, out_features=12100, bias=True)
)"
6879fc72-d74e-4e66-9423-5f410f925127,1024,32,0.0017227471041826566,4,0.6047102390852391,0.032525378081624194,0.6038461538461538,0.06172596815411834,260,4827,0,0,"GAT_VGAE(
  (gat1): GATConv(110, 1024, heads=4)
  (gat2): GATConv(4096, 32, heads=1)
  (decoder): Linear(in_features=32, out_features=12100, bias=True)
)"
2814f274-36e4-46ed-95e5-d35e5aee5b0c,32,64,0.0003451118805332095,12,0.5095309251559252,0.022288261515601784,0.5192307692307693,0.0427418078201678,260,6057,0,0,"GAT_VGAE(
  (gat1): GATConv(110, 32, heads=12)
  (gat2): GATConv(384, 64, heads=1)
  (decoder): Linear(in_features=64, out_features=12100, bias=True)
)"
e30108d4-c438-4aa7-a2e7-b83c72648539,1024,8,1.4018791996643203e-05,2,0.5143483627858627,0.02269715043074884,0.5269230769230769,0.04351969504447268,260,6036,0,0,"GAT_VGAE(
  (gat1): GATConv(110, 1024, heads=2)
  (gat2): GATConv(2048, 8, heads=1)
  (decoder): Linear(in_features=8, out_features=12100, bias=True)
)"
3d9a0f27-7aa8-4c10-8a94-53dd7a01fe97,256,64,0.0008345054134492228,16,0.5690131237006236,0.02811320754716981,0.573076923076923,0.053597122302158275,260,5300,0,0,"GAT_VGAE(
  (gat1): GATConv(110, 256, heads=16)
  (gat2): GATConv(4096, 64, heads=1)
  (decoder): Linear(in_features=64, out_features=12100, bias=True)
)"
7b0821aa-fc4b-4fdd-a249-9fad20c5e8d6,128,32,0.009128928743654514,4,0.7253053534303535,0.05506736965436438,0.7230769230769231,0.10234077299945564,260,3414,0,0,"GAT_VGAE(
  (gat1): GATConv(110, 128, heads=4)
  (gat2): GATConv(512, 32, heads=1)
  (decoder): Linear(in_features=32, out_features=12100, bias=True)
)"
f99a2f3a-fca9-4732-b878-aecdad538468,128,32,0.009865982553580482,4,0.7254742723492724,0.05513196480938416,0.7230769230769231,0.10245231607629428,260,3410,0,0,"GAT_VGAE(
  (gat1): GATConv(110, 128, heads=4)
  (gat2): GATConv(512, 32, heads=1)
  (decoder): Linear(in_features=32, out_features=12100, bias=True)
)"
af16c45b-8635-4f4d-8907-14b6f3cac939,128,32,0.00764294910981997,4,0.7254742723492724,0.05513196480938416,0.7230769230769231,0.10245231607629428,260,3410,0,0,"GAT_VGAE(
  (gat1): GATConv(110, 128, heads=4)
  (gat2): GATConv(512, 32, heads=1)
  (decoder): Linear(in_features=32, out_features=12100, bias=True)
)"
3ec5dd9c-9e95-403f-9d20-7d0a3940107b,128,32,0.008924997125810295,4,0.7254742723492724,0.05513196480938416,0.7230769230769231,0.10245231607629428,260,3410,0,0,"GAT_VGAE(
  (gat1): GATConv(110, 128, heads=4)
  (gat2): GATConv(512, 32, heads=1)
  (decoder): Linear(in_features=32, out_features=12100, bias=True)
)"
da773130-01cc-4baf-a2f8-4ce2aca788a0,128,32,0.0038938202770884673,14,0.7115319646569647,0.05177265053460889,0.7076923076923077,0.09648662821185107,260,3554,0,0,"GAT_VGAE(
  (gat1): GATConv(110, 128, heads=14)
  (gat2): GATConv(1792, 32, heads=1)
  (decoder): Linear(in_features=32, out_features=12100, bias=True)
)"
747410d9-2d7e-4a7f-99ea-f14bdc382c45,128,128,0.002822847842127861,10,0.7254742723492724,0.05513196480938416,0.7230769230769231,0.10245231607629428,260,3410,0,0,"GAT_VGAE(
  (gat1): GATConv(110, 128, heads=10)
  (gat2): GATConv(1280, 128, heads=1)
  (decoder): Linear(in_features=128, out_features=12100, bias=True)
)"
e4de4731-50e0-4508-8f6b-c15f5cf149a6,128,8,0.004440753313078936,8,0.72429183991684,0.054682955206515414,0.7230769230769231,0.10167658193618172,260,3438,0,0,"GAT_VGAE(
  (gat1): GATConv(110, 128, heads=8)
  (gat2): GATConv(1024, 8, heads=1)
  (decoder): Linear(in_features=8, out_features=12100, bias=True)
)"
3f7c5667-e700-4c4d-b234-45834ab30cf9,512,32,0.0019905169731968078,4,0.6842223232848232,0.045110887096774195,0.6884615384615385,0.0846736045411542,260,3968,0,0,"GAT_VGAE(
  (gat1): GATConv(110, 512, heads=4)
  (gat2): GATConv(2048, 32, heads=1)
  (decoder): Linear(in_features=32, out_features=12100, bias=True)
)"
3cb4df14-fe90-4029-ada6-a2464dfb894a,128,16,2.2741781665918686e-05,12,0.48729859667359676,0.0204149377593361,0.47307692307692306,0.03914081145584725,260,6025,0,0,"GAT_VGAE(
  (gat1): GATConv(110, 128, heads=12)
  (gat2): GATConv(1536, 16, heads=1)
  (decoder): Linear(in_features=16, out_features=12100, bias=True)
)"
a5601f65-712d-4d87-b125-6f39385316b7,64,128,0.004182001729086492,14,0.7254742723492724,0.05513196480938416,0.7230769230769231,0.10245231607629428,260,3410,0,0,"GAT_VGAE(
  (gat1): GATConv(110, 64, heads=14)
  (gat2): GATConv(896, 128, heads=1)
  (decoder): Linear(in_features=128, out_features=12100, bias=True)
)"
d9a4baec-1b1d-482a-b163-ae95878c1d60,64,16,0.0008158437455905973,2,0.5633088617463617,0.027517783601647323,0.5653846153846154,0.052481256694037845,260,5342,0,0,"GAT_VGAE(
  (gat1): GATConv(110, 64, heads=2)
  (gat2): GATConv(128, 16, heads=1)
  (decoder): Linear(in_features=16, out_features=12100, bias=True)
)"
c4267d76-a3c5-4a02-b5c4-e45b2e0fcce4,64,16,2.91685734182038e-05,8,0.5149623180873181,0.022742254449571522,0.5307692307692308,0.04361567635903919,260,6068,0,0,"GAT_VGAE(
  (gat1): GATConv(110, 64, heads=8)
  (gat2): GATConv(512, 16, heads=1)
  (decoder): Linear(in_features=16, out_features=12100, bias=True)
)"
1b55912a-41cd-4548-b649-3558bfce0618,32,128,0.0005837670636368756,4,0.7209102130977132,0.05430656934306569,0.7153846153846154,0.10094979647218454,260,3425,0,0,"GAT_VGAE(
  (gat1): GATConv(110, 32, heads=4)
  (gat2): GATConv(128, 128, heads=1)
  (decoder): Linear(in_features=128, out_features=12100, bias=True)
)"
ab0bf169-4e06-4e6b-8b4e-3d818a70177f,32,64,0.00010853045223236429,8,0.4897219334719335,0.02059025394646534,0.46153846153846156,0.03942181340341656,260,5828,0,0,"GAT_VGAE(
  (gat1): GATConv(110, 32, heads=8)
  (gat2): GATConv(256, 64, heads=1)
  (decoder): Linear(in_features=64, out_features=12100, bias=True)
)"
4d3070b7-9098-4dd2-b700-60cac9f9ceb1,64,16,0.002769324409534769,14,0.7255165020790021,0.0551481372836609,0.7230769230769231,0.10248023984736986,260,3409,0,0,"GAT_VGAE(
  (gat1): GATConv(110, 64, heads=14)
  (gat2): GATConv(896, 16, heads=1)
  (decoder): Linear(in_features=16, out_features=12100, bias=True)
)"
4767a260-f35a-467a-9335-1aec8bedc97d,32,128,8.08873687595963e-05,2,0.5387214137214137,0.024977856510186004,0.5423076923076923,0.04775613886536833,260,5645,0,0,"GAT_VGAE(
  (gat1): GATConv(110, 32, heads=2)
  (gat2): GATConv(64, 128, heads=1)
  (decoder): Linear(in_features=128, out_features=12100, bias=True)
)"
d6cb3c0f-bee5-43f7-829d-ba4c0c897ef5,32,8,9.001158000148655e-05,10,0.5165897869022869,0.022876892692560897,0.5346153846153846,0.043876262626262624,260,6076,0,0,"GAT_VGAE(
  (gat1): GATConv(110, 32, heads=10)
  (gat2): GATConv(320, 8, heads=1)
  (decoder): Linear(in_features=8, out_features=12100, bias=True)
)"
6aa3f773-6072-4af5-9d60-722262a3b684,128,16,0.005067066038602742,4,0.7254742723492724,0.05513196480938416,0.7230769230769231,0.10245231607629428,260,3410,0,0,"GAT_VGAE(
  (gat1): GATConv(110, 128, heads=4)
  (gat2): GATConv(512, 16, heads=1)
  (decoder): Linear(in_features=16, out_features=12100, bias=True)
)"
5a805237-e896-432f-a527-3f81ae31f159,64,32,0.001836579239121146,6,0.6695361226611226,0.0431077694235589,0.6615384615384615,0.08094117647058824,260,3990,0,0,"GAT_VGAE(
  (gat1): GATConv(110, 64, heads=6)
  (gat2): GATConv(384, 32, heads=1)
  (decoder): Linear(in_features=32, out_features=12100, bias=True)
)"
11a187c9-e292-4537-8023-bba2c3a1d03d,32,32,2.6491977076820667e-05,4,0.4969367203742204,0.021231073074391045,0.49615384615384617,0.04071969696969697,260,6076,0,0,"GAT_VGAE(
  (gat1): GATConv(110, 32, heads=4)
  (gat2): GATConv(128, 32, heads=1)
  (decoder): Linear(in_features=32, out_features=12100, bias=True)
)"
383ddd9c-fc9a-4386-93f4-6285a21fef63,64,16,0.006532389965049117,2,0.7255165020790021,0.0551481372836609,0.7230769230769231,0.10248023984736986,260,3409,0,0,"GAT_VGAE(
  (gat1): GATConv(110, 64, heads=2)
  (gat2): GATConv(128, 16, heads=1)
  (decoder): Linear(in_features=16, out_features=12100, bias=True)
)"
53ca8d26-cec4-498c-abb5-3bccf13ffead,32,32,0.003051286885888219,16,0.6679346413721413,0.04222276146566367,0.6692307692307692,0.07943391919653048,260,4121,0,0,"GAT_VGAE(
  (gat1): GATConv(110, 32, heads=16)
  (gat2): GATConv(512, 32, heads=1)
  (decoder): Linear(in_features=32, out_features=12100, bias=True)
)"
491d83e1-32a6-42e9-b579-86c925d3c3d2,128,64,0.009215939316568089,2,0.7254742723492724,0.05513196480938416,0.7230769230769231,0.10245231607629428,260,3410,0,0,"GAT_VGAE(
  (gat1): GATConv(110, 128, heads=2)
  (gat2): GATConv(256, 64, heads=1)
  (decoder): Linear(in_features=64, out_features=12100, bias=True)
)"
326d26a6-e4c9-4b7b-b369-b4acab8c2251,32,128,3.795774606342286e-05,2,0.5189773908523908,0.0230794592812397,0.5384615384615384,0.044261776794182736,260,6066,0,0,"GAT_VGAE(
  (gat1): GATConv(110, 32, heads=2)
  (gat2): GATConv(64, 128, heads=1)
  (decoder): Linear(in_features=128, out_features=12100, bias=True)
)"
477a8c97-ec1a-49e4-9308-7b10c22455bf,64,16,0.007118191701625566,8,0.7254742723492724,0.05513196480938416,0.7230769230769231,0.10245231607629428,260,3410,0,0,"GAT_VGAE(
  (gat1): GATConv(110, 64, heads=8)
  (gat2): GATConv(512, 16, heads=1)
  (decoder): Linear(in_features=16, out_features=12100, bias=True)
)"
1c7c7df4-8c4c-4917-a1a3-957b7a850e4d,64,32,9.551040634115278e-05,8,0.4859472453222453,0.02030708271421496,0.47307692307692306,0.03894253601393066,260,6057,0,0,"GAT_VGAE(
  (gat1): GATConv(110, 64, heads=8)
  (gat2): GATConv(512, 32, heads=1)
  (decoder): Linear(in_features=32, out_features=12100, bias=True)
)"
7d942826-37d5-41f8-8d0a-a6fc39f557ca,64,8,0.009982822883625063,4,0.7254742723492724,0.05513196480938416,0.7230769230769231,0.10245231607629428,260,3410,0,0,"GAT_VGAE(
  (gat1): GATConv(110, 64, heads=4)
  (gat2): GATConv(256, 8, heads=1)
  (decoder): Linear(in_features=8, out_features=12100, bias=True)
)"
ce8d5b64-683d-4a71-82c8-a9135a1fbdf9,32,128,0.001403487826031255,2,0.7179963617463618,0.05323411562678878,0.7153846153846154,0.09909429941395845,260,3494,0,0,"GAT_VGAE(
  (gat1): GATConv(110, 32, heads=2)
  (gat2): GATConv(64, 128, heads=1)
  (decoder): Linear(in_features=128, out_features=12100, bias=True)
)"
e54f5985-7366-4a71-a820-b64c70450eb3,64,64,0.00031446249590072267,8,0.5804866164241165,0.029272001520623456,0.5923076923076923,0.0557869951095816,260,5261,0,0,"GAT_VGAE(
  (gat1): GATConv(110, 64, heads=8)
  (gat2): GATConv(512, 64, heads=1)
  (decoder): Linear(in_features=64, out_features=12100, bias=True)
)"
38d67891-a28c-4d07-9641-06aab828b779,128,16,0.0006665006964309794,16,0.578154235966736,0.029382568989477865,0.5692307692307692,0.055880687181423444,260,5037,0,0,"GAT_VGAE(
  (gat1): GATConv(110, 128, heads=16)
  (gat2): GATConv(2048, 16, heads=1)
  (decoder): Linear(in_features=16, out_features=12100, bias=True)
)"
6fbeb3f7-7238-4378-a57a-47d45ac46f48,128,64,0.0024040263304705564,2,0.7195393711018712,0.0533675799086758,0.7192307692307692,0.09936238044633369,260,3504,0,0,"GAT_VGAE(
  (gat1): GATConv(110, 128, heads=2)
  (gat2): GATConv(256, 64, heads=1)
  (decoder): Linear(in_features=64, out_features=12100, bias=True)
)"
76fd16d3-4ca8-4f31-8bb9-dc88d91776bc,128,16,0.004582927172919843,2,0.7254742723492724,0.05513196480938416,0.7230769230769231,0.10245231607629428,260,3410,0,0,"GAT_VGAE(
  (gat1): GATConv(110, 128, heads=2)
  (gat2): GATConv(256, 16, heads=1)
  (decoder): Linear(in_features=16, out_features=12100, bias=True)
)"
b26d453f-e0f2-4a90-bcc8-949f75e018ce,128,64,0.0007732625205658782,2,0.4875324844074844,0.02044180679195516,0.47692307692307695,0.03920328801770471,260,6066,0,0,"GAT_VGAE(
  (gat1): GATConv(110, 128, heads=2)
  (gat2): GATConv(256, 64, heads=1)
  (decoder): Linear(in_features=64, out_features=12100, bias=True)
)"
238d8696-86c8-47f9-8848-f07f23b4011a,64,8,0.00016207800652177852,2,0.5278034043659043,0.023903022024927438,0.5384615384615384,0.045774072257642635,260,5857,0,0,"GAT_VGAE(
  (gat1): GATConv(110, 64, heads=2)
  (gat2): GATConv(128, 8, heads=1)
  (decoder): Linear(in_features=8, out_features=12100, bias=True)
)"
9a34281c-d822-4cb8-ba0c-6a27740f167e,128,64,1.1027410878989254e-05,2,0.48854274948024956,0.02050764834425954,0.46923076923076923,0.03929779352552746,260,5949,0,0,"GAT_VGAE(
  (gat1): GATConv(110, 128, heads=2)
  (gat2): GATConv(256, 64, heads=1)
  (decoder): Linear(in_features=64, out_features=12100, bias=True)
)"
bb1c561c-344b-4ec7-80b9-016622c7c928,64,16,0.0015113597210185332,2,0.596439708939709,0.030908043770397388,0.6192307692307693,0.058877308465898705,260,5209,0,0,"GAT_VGAE(
  (gat1): GATConv(110, 64, heads=2)
  (gat2): GATConv(128, 16, heads=1)
  (decoder): Linear(in_features=16, out_features=12100, bias=True)
)"
6983a6eb-7b6d-45bc-b34e-c4cfaa60c865,128,64,0.0052939193792107195,4,0.7254320426195426,0.05511580181764878,0.7230769230769231,0.10242440751838736,260,3411,0,0,"GAT_VGAE(
  (gat1): GATConv(110, 128, heads=4)
  (gat2): GATConv(512, 64, heads=1)
  (decoder): Linear(in_features=64, out_features=12100, bias=True)
)"
d9c95fab-cd39-462e-ad71-c816bb3d7266,64,16,0.005,4,0.6909141112266112,0.047302684028700505,0.6846153846153846,0.08849117573949788,260,3763,132,[0 0 0 ... 0 0 0],"GAT_VGAE(
  (gat1): GATConv(110, 64, heads=4)
  (gat2): GATConv(256, 16, heads=1)
  (decoder): Linear(in_features=16, out_features=12100, bias=True)
)"
a666219b-235d-4f3f-a50c-8109fb4f04e0,64,16,0.005,4,0.7037422037422039,0.0488771466314399,0.7115384615384616,0.09147095179233622,260,3785,131,[0 0 0 ... 0 0 0],"GAT_VGAE(
  (gat1): GATConv(110, 64, heads=4)
  (gat2): GATConv(256, 16, heads=1)
  (decoder): Linear(in_features=16, out_features=12100, bias=True)
)"
25bcc729-51e8-43d0-b3d9-e9bebf4f8d28,64,16,0.005,4,0.7123765592515593,0.0520656479909451,0.7076923076923077,0.09699525566684239,260,3534,127,[0 0 0 ... 0 1 0],"GAT_VGAE(
  (gat1): GATConv(110, 64, heads=4)
  (gat2): GATConv(256, 16, heads=1)
  (decoder): Linear(in_features=16, out_features=12100, bias=True)
)"
f2d6aa4a-8b03-412b-971a-e252c12a9e83,64,16,0.005,4,0.7254742723492724,0.05513196480938416,0.7230769230769231,0.10245231607629428,260,3410,139,[0 0 0 ... 1 0 0],"GAT_VGAE(
  (gat1): GATConv(1000, 64, heads=4)
  (gat2): GATConv(256, 16, heads=1)
  (decoder): Linear(in_features=16, out_features=12100, bias=True)
)"
e6fc8830-5487-46c7-a991-84c92142a996,64,16,0.005,4,0.49652399137796416,0.010800152783656277,0.5780110497237569,0.021204106243476323,9050,484345,1759,[0 0 0 ... 0 0 0],"GAT_VGAE(
  (gat1): GATConv(758, 64, heads=4)
  (gat2): GATConv(256, 16, heads=1)
  (decoder): Linear(in_features=16, out_features=828100, bias=True)
)"
de354c2e-be0a-421a-bb8d-9161c907b73a,64,16,0.005,4,0.5001275396202514,0.010932479135107446,0.7169060773480663,0.021536536262408486,9050,593461,1912,[0 0 0 ... 0 0 0],"GAT_VGAE(
  (gat1): GATConv(758, 64, heads=4)
  (gat2): GATConv(256, 16, heads=1)
  (decoder): Linear(in_features=16, out_features=828100, bias=True)
)"
70afc223-715b-45e8-8aac-6f1fe69cde37,64,16,0.005,4,0.5200428794178794,0.023272090988626423,0.5115384615384615,0.04451882845188285,260,5715,25,[0 0 0 ... 0 0 0],"GAT_VGAE(
  (gat1): GATConv(1000, 64, heads=4)
  (gat2): GATConv(256, 16, heads=1)
  (decoder): Linear(in_features=16, out_features=12100, bias=True)
)"
ba6428d8-4f4b-457c-b1bb-a883891a3034,64,16,0.005,4,0.7254742723492724,0.05513196480938416,0.7230769230769231,0.10245231607629428,260,3410,134,[0 0 0 ... 0 0 0],"GAT_VGAE(
  (gat1): GATConv(1000, 64, heads=4)
  (gat2): GATConv(256, 16, heads=1)
  (decoder): Linear(in_features=16, out_features=12100, bias=True)
)"
b7f41258-5170-4144-8008-a70658a49043,64,16,0.005,4,0.7254742723492724,0.05513196480938416,0.7230769230769231,0.10245231607629428,260,3410,129,[0 0 0 ... 0 0 0],"GAT_VGAE(
  (gat1): GATConv(1000, 64, heads=4)
  (gat2): GATConv(256, 16, heads=1)
  (decoder): Linear(in_features=16, out_features=12100, bias=True)
)"
e3acc3ba-7b27-46aa-b945-e7e006ec5612,64,16,0.005,4,0.7254742723492724,0.05513196480938416,0.7230769230769231,0.10245231607629428,260,3410,137,[0 0 0 ... 0 0 0],"GAT_VGAE(
  (gat1): GATConv(1000, 64, heads=4)
  (gat2): GATConv(256, 16, heads=1)
  (decoder): Linear(in_features=16, out_features=12100, bias=True)
)"
d876f637-7ec1-4820-be2c-9a1ea321f240,64,16,0.005,4,0.7254742723492724,0.05513196480938416,0.7230769230769231,0.10245231607629428,260,3410,138,[1 0 0 ... 0 0 0],"GAT_VGAE(
  (gat1): GATConv(1000, 64, heads=4)
  (gat2): GATConv(256, 16, heads=1)
  (decoder): Linear(in_features=16, out_features=12100, bias=True)
)"
ddcb9f48-d386-462c-ab34-cd92f7709632,64,16,0.005,4,0.7254742723492724,0.05513196480938416,0.7230769230769231,0.10245231607629428,260,3410,136,[0 0 0 ... 0 0 0],"GAT_VGAE(
  (gat1): GATConv(1000, 64, heads=4)
  (gat2): GATConv(256, 16, heads=1)
  (mu_net): Linear(in_features=16, out_features=16, bias=True)
  (log_var_net): Linear(in_features=16, out_features=16, bias=True)
  (decoder): Linear(in_features=16, out_features=12100, bias=True)
)"
c029b097-1b63-40df-9bcc-06baeaa30876,64,16,0.005,4,0.7254742723492724,0.05513196480938416,0.7230769230769231,0.10245231607629428,260,3410,147,[0 0 0 ... 0 0 0],"GAT_VGAE(
  (gat1): GATConv(1000, 64, heads=4)
  (gat2): GATConv(256, 16, heads=1)
  (mu_net): Linear(in_features=16, out_features=16, bias=True)
  (log_var_net): Linear(in_features=16, out_features=16, bias=True)
  (decoder): Linear(in_features=16, out_features=12100, bias=True)
)"
989252b0-2dd5-4196-a567-5cac66a1a1f4,64,16,0.005,4,0.7254742723492724,0.05513196480938416,0.7230769230769231,0.10245231607629428,260,3410,130,[1 1 0 ... 0 0 0],"GAT_VGAE(
  (gat1): GATConv(1000, 64, heads=4)
  (gat2): GATConv(256, 16, heads=1)
  (mu_net): Linear(in_features=16, out_features=16, bias=True)
  (log_var_net): Linear(in_features=16, out_features=16, bias=True)
  (decoder): Linear(in_features=16, out_features=12100, bias=True)
)"
f6b811de-aa2d-4293-bfd7-de25dba124ba,64,16,0.005,4,0.7254742723492724,0.05513196480938416,0.7230769230769231,0.10245231607629428,260,3410,140,[0 0 0 ... 0 0 0],"GAT_VGAE(
  (gat1): GATConv(1000, 64, heads=4)
  (gat2): GATConv(256, 16, heads=1)
  (mu_net): Linear(in_features=16, out_features=16, bias=True)
  (log_var_net): Linear(in_features=16, out_features=16, bias=True)
  (decoder): Linear(in_features=16, out_features=12100, bias=True)
)"
47f18dc6-1d88-46c6-b867-6779f771bd2d,64,16,0.005,4,0.7254742723492724,0.05513196480938416,0.7230769230769231,0.10245231607629428,260,3410,129,[0 0 0 ... 0 0 0],"GAT_VGAE(
  (gat1): GATConv(1000, 64, heads=4)
  (gat2): GATConv(256, 16, heads=1)
  (mu_net): Linear(in_features=16, out_features=16, bias=True)
  (log_var_net): Linear(in_features=16, out_features=16, bias=True)
  (decoder): Linear(in_features=16, out_features=12100, bias=True)
)"
f6f48473-ae8d-4c42-90fe-99857897c48f,64,16,0.005,4,0.7254742723492724,0.05513196480938416,0.7230769230769231,0.10245231607629428,260,3410,138,[0 0 0 ... 0 0 0],"GAT_VGAE(
  (gat1): GATConv(1000, 64, heads=4)
  (gat2): GATConv(256, 16, heads=1)
  (mu_net): Linear(in_features=16, out_features=16, bias=True)
  (log_var_net): Linear(in_features=16, out_features=16, bias=True)
  (decoder): Linear(in_features=16, out_features=12100, bias=True)
)"
127edfd1-e0ee-4db5-b86b-03da9285c37d,64,16,0.005,4,0.7645182968204685,0.0071474755425615655,0.710195530726257,0.014152518786529362,2864,284576,2047,[0 0 0 ... 0 0 0],"GAT_VGAE(
  (gat1): GATConv(1000, 64, heads=4)
  (gat2): GATConv(256, 16, heads=1)
  (mu_net): Linear(in_features=16, out_features=16, bias=True)
  (log_var_net): Linear(in_features=16, out_features=16, bias=True)
  (decoder): Linear(in_features=16, out_features=1562500, bias=True)
)"
da75b35c-aaa0-4913-8f78-5cb8cf6d04ee,64,16,0.005,4,0.7645182968204685,0.0071474755425615655,0.710195530726257,0.014152518786529362,2864,284576,2052,[0 0 0 ... 0 0 0],"GAT_VGAE(
  (gat1): GATConv(1000, 64, heads=4)
  (gat2): GATConv(256, 16, heads=1)
  (mu_net): Linear(in_features=16, out_features=16, bias=True)
  (log_var_net): Linear(in_features=16, out_features=16, bias=True)
  (decoder): Linear(in_features=16, out_features=1562500, bias=True)
)"
59ca5c31-68d4-481b-8850-d075b6fa5684,64,16,0.005,4,0.7254742723492724,0.05513196480938416,0.7230769230769231,0.10245231607629428,260,3410,133,[0 0 0 ... 0 0 0],"GAT_VGAE(
  (gat1): GATConv(1000, 64, heads=4)
  (gat2): GATConv(256, 16, heads=1)
  (mu_net): Linear(in_features=16, out_features=16, bias=True)
  (log_var_net): Linear(in_features=16, out_features=16, bias=True)
  (decoder): Linear(in_features=16, out_features=12100, bias=True)
)"
303af8ff-8a90-49bf-93e0-65af1481f15a,64,16,0.05,4,0.27452572765072764,0.008285385500575374,0.27692307692307694,0.016089385474860336,260,8690,20,[0 0 0 ... 0 0 0],"GAT_VGAE(
  (gat1): GATConv(1000, 64, heads=4)
  (gat2): GATConv(256, 16, heads=1)
  (mu_net): Linear(in_features=16, out_features=16, bias=True)
  (log_var_net): Linear(in_features=16, out_features=16, bias=True)
  (decoder): Linear(in_features=16, out_features=12100, bias=True)
)"
575dc9a7-8da4-4023-ab57-38d728ae879e,64,16,0.001,4,0.7254742723492724,0.05513196480938416,0.7230769230769231,0.10245231607629428,260,3410,130,[0 0 0 ... 0 0 0],"GAT_VGAE(
  (gat1): GATConv(1000, 64, heads=4)
  (gat2): GATConv(256, 16, heads=1)
  (mu_net): Linear(in_features=16, out_features=16, bias=True)
  (log_var_net): Linear(in_features=16, out_features=16, bias=True)
  (decoder): Linear(in_features=16, out_features=12100, bias=True)
)"
6e98c9bc-2716-465c-978e-9deaea82d1a5,64,16,0.0001,4,0.5821952962577963,0.029570931580981834,0.5884615384615385,0.05631210894368789,260,5174,85,[0 0 0 ... 0 0 0],"GAT_VGAE(
  (gat1): GATConv(1000, 64, heads=4)
  (gat2): GATConv(256, 16, heads=1)
  (mu_net): Linear(in_features=16, out_features=16, bias=True)
  (log_var_net): Linear(in_features=16, out_features=16, bias=True)
  (decoder): Linear(in_features=16, out_features=12100, bias=True)
)"
6771c6fb-81ca-455e-bda5-1243b459c287,64,16,0.0005,4,0.7252631237006237,0.05505124450951684,0.7230769230769231,0.10231292517006803,260,3415,132,[0 0 0 ... 0 0 0],"GAT_VGAE(
  (gat1): GATConv(1000, 64, heads=4)
  (gat2): GATConv(256, 16, heads=1)
  (mu_net): Linear(in_features=16, out_features=16, bias=True)
  (log_var_net): Linear(in_features=16, out_features=16, bias=True)
  (decoder): Linear(in_features=16, out_features=12100, bias=True)
)"
0b8103f4-3b33-4c81-8f5c-cea1f50261f9,64,16,0.0005,4,0.7254320426195426,0.05511580181764878,0.7230769230769231,0.10242440751838736,260,3411,128,[0 0 0 ... 0 0 0],"GAT_VGAE(
  (gat1): GATConv(1000, 64, heads=4)
  (gat2): GATConv(256, 16, heads=1)
  (mu_net): Linear(in_features=16, out_features=16, bias=True)
  (log_var_net): Linear(in_features=16, out_features=16, bias=True)
  (decoder): Linear(in_features=16, out_features=12100, bias=True)
)"
e7e5b4d1-e44c-43d5-8867-63da84c45ed4,64,16,0.0005,4,0.7254742723492724,0.05513196480938416,0.7230769230769231,0.10245231607629428,260,3410,138,[0 0 0 ... 0 0 0],"GAT_VGAE(
  (gat1): GATConv(1000, 64, heads=4)
  (gat2): GATConv(256, 16, heads=1)
  (mu_net): Linear(in_features=16, out_features=16, bias=True)
  (log_var_net): Linear(in_features=16, out_features=16, bias=True)
  (decoder): Linear(in_features=16, out_features=12100, bias=True)
)"
72fd7f04-f262-4d29-a9e7-59179da0ab42,64,16,0.0005,4,0.7254320426195426,0.05511580181764878,0.7230769230769231,0.10242440751838736,260,3411,145,[0 0 0 ... 1 0 0],"GAT_VGAE(
  (gat1): GATConv(1000, 64, heads=4)
  (gat2): GATConv(256, 16, heads=1)
  (mu_net): Linear(in_features=16, out_features=16, bias=True)
  (log_var_net): Linear(in_features=16, out_features=16, bias=True)
  (decoder): Linear(in_features=16, out_features=12100, bias=True)
)"
60f960d7-a5cd-410c-9ebe-e0fe368517e2,64,16,0.0005,4,0.7253475831600831,0.05508350424846176,0.7230769230769231,0.1023686359923768,260,3413,133,[0 0 0 ... 0 0 0],"GAT_VGAE(
  (gat1): GATConv(1000, 64, heads=4)
  (gat2): GATConv(256, 16, heads=1)
  (mu_net): Linear(in_features=16, out_features=16, bias=True)
  (log_var_net): Linear(in_features=16, out_features=16, bias=True)
  (decoder): Linear(in_features=16, out_features=12100, bias=True)
)"
eb86aa3c-9faf-403c-883e-88c5f3873cc2,64,16,0.0005,4,0.7254320426195426,0.05511580181764878,0.7230769230769231,0.10242440751838736,260,3411,132,[0 0 0 ... 0 0 0],"GAT_VGAE(
  (gat1): GATConv(1000, 64, heads=4)
  (gat2): GATConv(256, 16, heads=1)
  (mu_net): Linear(in_features=16, out_features=16, bias=True)
  (log_var_net): Linear(in_features=16, out_features=16, bias=True)
  (decoder): Linear(in_features=16, out_features=12100, bias=True)
)"
5d2a2e5d-1a2f-4f71-9ead-08a424ad4cc6,64,16,0.0005,4,0.7254320426195426,0.05511580181764878,0.7230769230769231,0.10242440751838736,260,3411,141,[0 0 0 ... 0 0 0],"GAT_VGAE(
  (gat1): GATConv(1000, 64, heads=4)
  (gat2): GATConv(256, 16, heads=1)
  (mu_net): Linear(in_features=16, out_features=16, bias=True)
  (log_var_net): Linear(in_features=16, out_features=16, bias=True)
  (decoder): Linear(in_features=16, out_features=12100, bias=True)
)"
addcfbd8-2c0e-4676-a307-89124843a4f7,64,16,0.0005,4,0.7253475831600831,0.05508350424846176,0.7230769230769231,0.1023686359923768,260,3413,126,[0 0 0 ... 0 0 0],"GAT_VGAE(
  (gat1): GATConv(1000, 64, heads=4)
  (gat2): GATConv(256, 16, heads=1)
  (mu_net): Linear(in_features=16, out_features=16, bias=True)
  (log_var_net): Linear(in_features=16, out_features=16, bias=True)
  (decoder): Linear(in_features=16, out_features=12100, bias=True)
)"
e7ca0f80-8f19-4d95-9367-8109ce1f1dfd,64,16,0.0005,4,0.7254742723492724,0.05513196480938416,0.7230769230769231,0.10245231607629428,260,3410,131,[0 0 0 ... 0 0 0],"GAT_VGAE(
  (gat1): GATConv(1000, 64, heads=4)
  (gat2): GATConv(256, 16, heads=1)
  (mu_net): Linear(in_features=16, out_features=16, bias=True)
  (log_var_net): Linear(in_features=16, out_features=16, bias=True)
  (decoder): Linear(in_features=16, out_features=12100, bias=True)
)"
51d61e69-b3b0-480e-9ab7-13f1a6973556,64,16,0.0005,4,0.7644157087806951,0.007139447377288555,0.710195530726257,0.014136780650542118,2864,284896,2053,[0 0 0 ... 0 0 0],"GAT_VGAE(
  (gat1): GATConv(1000, 64, heads=4)
  (gat2): GATConv(256, 16, heads=1)
  (mu_net): Linear(in_features=16, out_features=16, bias=True)
  (log_var_net): Linear(in_features=16, out_features=16, bias=True)
  (decoder): Linear(in_features=16, out_features=1562500, bias=True)
)"
762b3bd9-a454-460d-876f-43f344eb13a2,64,16,0.0005,4,0.7644336616876554,0.007140851004072462,0.710195530726257,0.014139532297083113,2864,284840,2058,[0 0 0 ... 0 0 0],"GAT_VGAE(
  (gat1): GATConv(1000, 64, heads=4)
  (gat2): GATConv(256, 16, heads=1)
  (mu_net): Linear(in_features=16, out_features=16, bias=True)
  (log_var_net): Linear(in_features=16, out_features=16, bias=True)
  (decoder): Linear(in_features=16, out_features=1562500, bias=True)
)"
34f964a4-c11a-4990-b437-1f5a52471052,64,16,0.0005,4,0.7255587318087318,0.05516431924882629,0.7230769230769231,0.1025081788440567,260,3408,137,[0 0 0 ... 0 0 0],"GAT_VGAE(
  (gat1): GATConv(1000, 64, heads=4)
  (gat2): GATConv(256, 16, heads=1)
  (mu_net): Linear(in_features=16, out_features=16, bias=True)
  (log_var_net): Linear(in_features=16, out_features=16, bias=True)
  (decoder): Linear(in_features=16, out_features=12100, bias=True)
)"
6b262d3c-6cf4-423a-92a4-80be737c6f6f,64,16,0.0005,4,0.7254742723492724,0.05513196480938416,0.7230769230769231,0.10245231607629428,260,3410,139,[0 0 0 ... 0 1 0],"GAT_VGAE(
  (gat1): GATConv(1000, 64, heads=4)
  (gat2): GATConv(256, 16, heads=1)
  (mu_net): Linear(in_features=16, out_features=16, bias=True)
  (log_var_net): Linear(in_features=16, out_features=16, bias=True)
  (decoder): Linear(in_features=16, out_features=12100, bias=True)
)"
ea73da3b-8c76-4ba6-b1d3-1588e77a8fea,64,16,0.0005,4,0.6841800935550936,0.04509952128999748,0.6884615384615385,0.08465358240718845,260,3969,130,[0 0 0 ... 0 0 0],"GAT_VGAE(
  (gat1): GATConv(1000, 64, heads=4)
  (gat2): GATConv(256, 16, heads=1)
  (mu_net): Linear(in_features=16, out_features=16, bias=True)
  (log_var_net): Linear(in_features=16, out_features=16, bias=True)
  (decoder): Linear(in_features=16, out_features=12100, bias=True)
)"
d64f40f6-8457-4043-badf-e9321774109a,64,16,0.0005,4,0.6971283783783784,0.047869542346133616,0.7,0.0896110290497292,260,3802,134,[0 0 0 ... 0 0 0],"GAT_VGAE(
  (gat1): GATConv(1000, 64, heads=4)
  (gat2): GATConv(256, 16, heads=1)
  (mu_net): Linear(in_features=16, out_features=16, bias=True)
  (log_var_net): Linear(in_features=16, out_features=16, bias=True)
  (decoder): Linear(in_features=16, out_features=12100, bias=True)
)"
a68c55ec-1115-42fd-b24a-c51853ccc7b6,64,16,0.0005,4,0.7003800675675675,0.04885906040268456,0.7,0.09134253450439146,260,3725,129,[0 0 0 ... 0 0 0],"GAT_VGAE(
  (gat1): GATConv(1000, 64, heads=4)
  (gat2): GATConv(256, 16, heads=1)
  (mu_net): Linear(in_features=16, out_features=16, bias=True)
  (log_var_net): Linear(in_features=16, out_features=16, bias=True)
  (decoder): Linear(in_features=16, out_features=12100, bias=True)
)"
a3abeba3-632a-42f3-b4e6-ba29be35bb76,64,16,0.0005,4,0.7044990904365905,0.04980947196516059,0.7038461538461539,0.09303507880020336,260,3674,127,[0 0 0 ... 0 0 1],"GAT_VGAE(
  (gat1): GATConv(1000, 64, heads=4)
  (gat2): GATConv(256, 16, heads=1)
  (mu_net): Linear(in_features=16, out_features=16, bias=True)
  (log_var_net): Linear(in_features=16, out_features=16, bias=True)
  (decoder): Linear(in_features=16, out_features=12100, bias=True)
)"
5e9fa417-1f11-4199-b78c-102aa2388488,64,16,0.0005,4,0.5987753378378379,0.03170087380613697,0.6,0.06022003474232773,260,4921,91,[0 0 0 ... 0 0 0],"GAT_VGAE(
  (gat1): GATConv(1000, 64, heads=4)
  (gat2): GATConv(256, 16, heads=1)
  (mu_net): Linear(in_features=16, out_features=16, bias=True)
  (log_var_net): Linear(in_features=16, out_features=16, bias=True)
  (decoder): Linear(in_features=16, out_features=12100, bias=True)
)"
b94ee80e-d567-4c19-bd75-294a0792e845,64,16,0.0005,4,0.5717060810810811,0.028848093605003025,0.55,0.05482077822503354,260,4957,87,[0 0 0 ... 0 0 0],"GAT_VGAE(
  (gat1): GATConv(1000, 64, heads=4)
  (gat2): GATConv(256, 16, heads=1)
  (mu_net): Linear(in_features=16, out_features=16, bias=True)
  (log_var_net): Linear(in_features=16, out_features=16, bias=True)
  (decoder): Linear(in_features=16, out_features=12100, bias=True)
)"
493759a8-3253-49f0-8fe6-7f4d441102b5,64,16,0.0005,4,0.5971738565488566,0.03127474267616785,0.6076923076923076,0.05948795180722891,260,5052,81,[0 0 0 ... 0 0 0],"GAT_VGAE(
  (gat1): GATConv(1000, 64, heads=4)
  (gat2): GATConv(256, 16, heads=1)
  (mu_net): Linear(in_features=16, out_features=16, bias=True)
  (log_var_net): Linear(in_features=16, out_features=16, bias=True)
  (decoder): Linear(in_features=16, out_features=12100, bias=True)
)"
80d92150-16d2-4448-947d-c546c0151536,64,16,0.0005,4,0.6136986746361746,0.032982316709715874,0.6384615384615384,0.06272435291894955,260,5033,102,[0 0 0 ... 0 0 0],"GAT_VGAE(
  (gat1): GATConv(1000, 64, heads=4)
  (gat2): GATConv(256, 16, heads=1)
  (mu_net): Linear(in_features=16, out_features=16, bias=True)
  (log_var_net): Linear(in_features=16, out_features=16, bias=True)
  (decoder): Linear(in_features=16, out_features=12100, bias=True)
)"
7c457892-2969-4b36-ace3-317eeb55d484,64,16,0.0005,4,0.5937954781704782,0.03078721745908028,0.6076923076923076,0.0586053412462908,260,5132,89,[0 0 0 ... 0 0 0],"GAT_VGAE(
  (gat1): GATConv(1000, 64, heads=4)
  (gat2): GATConv(256, 16, heads=1)
  (mu_net): Linear(in_features=16, out_features=16, bias=True)
  (log_var_net): Linear(in_features=16, out_features=16, bias=True)
  (decoder): Linear(in_features=16, out_features=12100, bias=True)
)"
e10697e1-ed88-4003-9ade-61c8b3800e89,64,16,0.0005,4,0.7254742723492724,0.05513196480938416,0.7230769230769231,0.10245231607629428,260,3410,131,[0 0 0 ... 0 0 0],"GAT_VGAE(
  (gat1): GATConv(1000, 64, heads=4)
  (gat2): GATConv(256, 16, heads=1)
  (mu_net): Linear(in_features=16, out_features=16, bias=True)
  (log_var_net): Linear(in_features=16, out_features=16, bias=True)
  (decoder): Linear(in_features=16, out_features=12100, bias=True)
)"
eb4a39ad-0c2c-47aa-bdb8-c8cae9a52eaa,64,16,0.0005,4,0.5800318347193347,0.029720986655883543,0.5653846153846154,0.05647330003841721,260,4946,84,[0 0 0 ... 0 0 0],"GAT_VGAE(
  (gat1): GATConv(1000, 64, heads=4)
  (gat2): GATConv(256, 16, heads=1)
  (mu_net): Linear(in_features=16, out_features=16, bias=True)
  (log_var_net): Linear(in_features=16, out_features=16, bias=True)
  (decoder): Linear(in_features=16, out_features=12100, bias=True)
)"
3798435e-a313-41eb-ad8e-490e81f72f43,64,16,0.0005,4,0.5963682432432432,0.03133788670148654,0.6,0.05956471935853379,260,4978,109,[0 0 0 ... 0 0 0],"GAT_VGAE(
  (gat1): GATConv(1000, 64, heads=4)
  (gat2): GATConv(256, 16, heads=1)
  (mu_net): Linear(in_features=16, out_features=16, bias=True)
  (log_var_net): Linear(in_features=16, out_features=16, bias=True)
  (decoder): Linear(in_features=16, out_features=12100, bias=True)
)"
dd3f384f-ea1f-451d-8430-c4b084f6bfde,64,16,0.0005,4,0.6602845634095633,0.0413022351797862,0.6538461538461539,0.07769652650822668,260,4116,119,[0 0 0 ... 0 0 0],"GAT_VGAE(
  (gat1): GATConv(1000, 64, heads=4)
  (gat2): GATConv(256, 16, heads=1)
  (mu_net): Linear(in_features=16, out_features=16, bias=True)
  (log_var_net): Linear(in_features=16, out_features=16, bias=True)
  (decoder): Linear(in_features=16, out_features=12100, bias=True)
)"
f8b7888e-d2e5-44e7-a348-b6849aa0596f,64,16,0.0005,4,0.7253053534303535,0.05506736965436438,0.7230769230769231,0.10234077299945564,260,3414,129,[0 1 0 ... 0 0 0],"GAT_VGAE(
  (gat1): GATConv(1000, 64, heads=4)
  (gat2): GATConv(256, 16, heads=1)
  (mu_net): Linear(in_features=16, out_features=16, bias=True)
  (log_var_net): Linear(in_features=16, out_features=16, bias=True)
  (decoder): Linear(in_features=16, out_features=12100, bias=True)
)"
d7474cec-ea6c-4a16-8623-5c39871e8f89,64,16,0.0005,4,0.6957315488565489,0.048102618920363445,0.6923076923076923,0.08995502248875563,260,3742,123,[0 0 0 ... 0 1 0],"GAT_VGAE(
  (gat1): GATConv(1000, 64, heads=4)
  (gat2): GATConv(256, 16, heads=1)
  (mu_net): Linear(in_features=16, out_features=16, bias=True)
  (log_var_net): Linear(in_features=16, out_features=16, bias=True)
  (decoder): Linear(in_features=16, out_features=12100, bias=True)
)"
6b300e7d-6ab8-4ee4-9b7c-9dfd4cb76139,64,16,0.0005,4,0.646403976091476,0.03917378917378917,0.6346153846153846,0.07379248658318426,260,4212,128,[0 0 0 ... 0 0 0],"GAT_VGAE(
  (gat1): GATConv(1000, 64, heads=4)
  (gat2): GATConv(256, 16, heads=1)
  (mu_net): Linear(in_features=16, out_features=16, bias=True)
  (log_var_net): Linear(in_features=16, out_features=16, bias=True)
  (decoder): Linear(in_features=16, out_features=12100, bias=True)
)"
aca931cc-c706-4f93-a6de-06659ef0456b,64,16,0.0005,4,0.7206990644490645,0.05422740524781341,0.7153846153846154,0.1008130081300813,260,3430,129,[0 0 0 ... 0 0 0],"GAT_VGAE(
  (gat1): GATConv(1000, 64, heads=4)
  (gat2): GATConv(256, 16, heads=1)
  (mu_net): Linear(in_features=16, out_features=16, bias=True)
  (log_var_net): Linear(in_features=16, out_features=16, bias=True)
  (decoder): Linear(in_features=16, out_features=12100, bias=True)
)"
2bd2ecfa-e61c-4282-a193-17a7983ea2fb,64,16,0.0005,4,0.7254742723492724,0.05513196480938416,0.7230769230769231,0.10245231607629428,260,3410,139,[0 0 0 ... 0 0 0],"GAT_VGAE(
  (gat1): GATConv(1000, 64, heads=4)
  (gat2): GATConv(256, 16, heads=1)
  (mu_net): Linear(in_features=16, out_features=16, bias=True)
  (log_var_net): Linear(in_features=16, out_features=16, bias=True)
  (decoder): Linear(in_features=16, out_features=12100, bias=True)
)"
01f7e2a0-de94-4946-a171-df3afe61d9af,64,16,0.0005,4,0.5340014293139292,0.024673172528079542,0.5153846153846153,0.04709189949042347,260,5431,71,[0 0 0 ... 0 0 0],"GAT_VGAE(
  (gat1): GATConv(1000, 64, heads=4)
  (gat2): GATConv(256, 16, heads=1)
  (mu_net): Linear(in_features=16, out_features=16, bias=True)
  (log_var_net): Linear(in_features=16, out_features=16, bias=True)
  (decoder): Linear(in_features=16, out_features=12100, bias=True)
)"
f1db1bef-8579-4336-b084-40728267e691,64,16,0.0005,4,0.6785115644490644,0.045240585774058574,0.6653846153846154,0.08472086190009795,260,3824,125,[0 0 0 ... 0 0 0],"GAT_VGAE(
  (gat1): GATConv(1000, 64, heads=4)
  (gat2): GATConv(256, 16, heads=1)
  (mu_net): Linear(in_features=16, out_features=16, bias=True)
  (log_var_net): Linear(in_features=16, out_features=16, bias=True)
  (decoder): Linear(in_features=16, out_features=12100, bias=True)
)"
d49692f2-f3bc-41e8-b146-7c04ba3cce3d,64,16,0.0005,4,0.5,0.04389994895354773,0.6615384615384615,0.0823360459550024,260,3918,128,[0 0 0 ... 0 0 0],"GAT_VGAE(
  (gat1): GATConv(1000, 64, heads=4)
  (gat2): GATConv(256, 16, heads=1)
  (mu_net): Linear(in_features=16, out_features=16, bias=True)
  (log_var_net): Linear(in_features=16, out_features=16, bias=True)
  (decoder): Linear(in_features=16, out_features=12100, bias=True)
)"
e082d0f2-7c11-4eb3-95f8-a42377f2eb05,64,16,0.0005,4,0.5,0.04241235596960039,0.6653846153846154,0.07974187600829684,260,4079,116,[0 0 0 ... 0 0 0],"GAT_VGAE(
  (gat1): GATConv(1000, 64, heads=4)
  (gat2): GATConv(256, 16, heads=1)
  (mu_net): Linear(in_features=16, out_features=16, bias=True)
  (log_var_net): Linear(in_features=16, out_features=16, bias=True)
  (decoder): Linear(in_features=16, out_features=12100, bias=True)
)"
3d975f2d-7796-4c90-a1a1-6a872624dd72,64,16,0.0005,4,0.6854242463617464,0.045723092730542,0.6846153846153846,0.08572116542258608,260,3893,128,[0 0 0 ... 0 0 0],"GAT_VGAE(
  (gat1): GATConv(1000, 64, heads=4)
  (gat2): GATConv(256, 16, heads=1)
  (mu_net): Linear(in_features=16, out_features=16, bias=True)
  (log_var_net): Linear(in_features=16, out_features=16, bias=True)
  (decoder): Linear(in_features=16, out_features=12100, bias=True)
)"
a0ec44e5-0727-41fb-88f4-c4266c7003d1,64,16,0.0005,4,0.5591411122661123,0.0486820871436256,0.6961538461538461,0.09100050276520864,260,3718,140,[0 0 0 ... 0 0 0],"GAT_VGAE(
  (gat1): GATConv(1000, 64, heads=4)
  (gat2): GATConv(256, 16, heads=1)
  (mu_net): Linear(in_features=16, out_features=16, bias=True)
  (log_var_net): Linear(in_features=16, out_features=16, bias=True)
  (decoder): Linear(in_features=16, out_features=12100, bias=True)
)"
27b5f5a0-3e33-477b-a82e-c5d322f52067,64,16,0.0005,4,0.6447570166320167,0.03881439661256175,0.6346153846153846,0.07315451119485701,260,4251,122,[0 1 0 ... 0 0 0],"GAT_VGAE(
  (gat1): GATConv(1000, 64, heads=4)
  (gat2): GATConv(256, 16, heads=1)
  (mu_net): Linear(in_features=16, out_features=16, bias=True)
  (log_var_net): Linear(in_features=16, out_features=16, bias=True)
  (decoder): Linear(in_features=16, out_features=12100, bias=True)
)"
f4893ea4-7f94-47f6-b7e5-b6ec07493cde,64,16,0.0005,4,0.6838390072765073,0.04557157569515963,0.6807692307692308,0.08542471042471042,260,3884,134,[0 0 0 ... 0 0 0],"GAT_VGAE(
  (gat1): GATConv(1000, 64, heads=4)
  (gat2): GATConv(256, 16, heads=1)
  (mu_net): Linear(in_features=16, out_features=16, bias=True)
  (log_var_net): Linear(in_features=16, out_features=16, bias=True)
  (decoder): Linear(in_features=16, out_features=12100, bias=True)
)"
0da38c33-bef3-46d4-bcd5-a4664661c88a,64,16,0.0005,4,0.6866294178794179,0.04576834569163897,0.6884615384615385,0.0858307360345241,260,3911,139,[1 1 0 ... 1 0 0],"GAT_VGAE(
  (gat1): GATConv(1000, 64, heads=4)
  (gat2): GATConv(256, 16, heads=1)
  (mu_net): Linear(in_features=16, out_features=16, bias=True)
  (log_var_net): Linear(in_features=16, out_features=16, bias=True)
  (decoder): Linear(in_features=16, out_features=12100, bias=True)
)"
c556ddf3-ba81-40a6-b162-fad2c40c1436,64,16,0.0005,4,0.6983108108108108,0.0445307147750628,0.75,0.08406984263849968,260,4379,113,[0 0 0 ... 0 0 0],"GAT_VGAE(
  (gat1): GATConv(1000, 64, heads=4)
  (gat2): GATConv(256, 16, heads=1)
  (mu_net): Linear(in_features=16, out_features=16, bias=True)
  (log_var_net): Linear(in_features=16, out_features=16, bias=True)
  (decoder): Linear(in_features=16, out_features=12100, bias=True)
)"
8a2d8a66-ba85-414b-880e-284954c63f87,64,16,5e-05,4,0.5014942827442828,0.021617021276595743,0.48846153846153845,0.041401792991035045,260,5875,57,[0 0 0 ... 0 0 0],"GAT_VGAE(
  (gat1): GATConv(1000, 64, heads=4)
  (gat2): GATConv(256, 16, heads=1)
  (mu_net): Linear(in_features=16, out_features=16, bias=True)
  (log_var_net): Linear(in_features=16, out_features=16, bias=True)
  (decoder): Linear(in_features=16, out_features=12100, bias=True)
)"
3e97a7c7-0630-4c35-9584-ed1d70595351,64,16,0.005,4,0.7051325363825363,0.04596622889305816,0.7538461538461538,0.08664898320070734,260,4264,107,[0 0 0 ... 0 0 0],"GAT_VGAE(
  (gat1): GATConv(1000, 64, heads=4)
  (gat2): GATConv(256, 16, heads=1)
  (mu_net): Linear(in_features=16, out_features=16, bias=True)
  (log_var_net): Linear(in_features=16, out_features=16, bias=True)
  (decoder): Linear(in_features=16, out_features=12100, bias=True)
)"
aab78152-b31f-43c5-ac3c-b5ffbf7ec0d4,64,16,0.005,4,0.6991716476091476,0.04550841431618867,0.7384615384615385,0.08573342263898191,260,4219,108,[0 0 1 ... 0 0 0],"GAT_VGAE(
  (gat1): GATConv(1000, 64, heads=4)
  (gat2): GATConv(256, 16, heads=1)
  (mu_net): Linear(in_features=16, out_features=16, bias=True)
  (log_var_net): Linear(in_features=16, out_features=16, bias=True)
  (decoder): Linear(in_features=16, out_features=12100, bias=True)
)"
77599898-68b8-4372-a6bf-5faac874cd23,64,16,0.005,4,0.7024915540540541,0.0455607476635514,0.75,0.08590308370044053,260,4280,118,[0 0 0 ... 0 0 0],"GAT_VGAE(
  (gat1): GATConv(1000, 64, heads=4)
  (gat2): GATConv(256, 16, heads=1)
  (mu_net): Linear(in_features=16, out_features=16, bias=True)
  (log_var_net): Linear(in_features=16, out_features=16, bias=True)
  (decoder): Linear(in_features=16, out_features=12100, bias=True)
)"
b47eac79-ded9-45ca-a7d6-6940e77df014,64,16,0.005,4,0.7024493243243244,0.04555010511562719,0.75,0.08588416648315349,260,4281,104,[0 0 0 ... 0 0 0],"GAT_VGAE(
  (gat1): GATConv(1000, 64, heads=4)
  (gat2): GATConv(256, 16, heads=1)
  (mu_net): Linear(in_features=16, out_features=16, bias=True)
  (log_var_net): Linear(in_features=16, out_features=16, bias=True)
  (decoder): Linear(in_features=16, out_features=12100, bias=True)
)"
e7072222-566e-488c-ac73-c84d84c25382,64,16,0.005,4,0.707097843035343,0.04620075046904315,0.7576923076923077,0.08709106984969053,260,4264,113,[0 0 1 ... 0 0 0],"GAT_VGAE(
  (gat1): GATConv(1000, 64, heads=4)
  (gat2): GATConv(256, 16, heads=1)
  (mu_net): Linear(in_features=16, out_features=16, bias=True)
  (log_var_net): Linear(in_features=16, out_features=16, bias=True)
  (decoder): Linear(in_features=16, out_features=12100, bias=True)
)"
58200f28-75c1-404a-a47a-592dc37e03a3,64,16,0.005,4,0.7016664501039501,0.04561486009875382,0.7461538461538462,0.08597385331265234,260,4253,103,[0 0 0 ... 0 0 0],"GAT_VGAE(
  (gat1): GATConv(1000, 64, heads=4)
  (gat2): GATConv(256, 16, heads=1)
  (mu_net): Linear(in_features=16, out_features=16, bias=True)
  (log_var_net): Linear(in_features=16, out_features=16, bias=True)
  (decoder): Linear(in_features=16, out_features=12100, bias=True)
)"
144c0a13-c366-4654-ae10-bfb7912b9a12,64,16,0.005,4,0.6074324324324325,0.028549283038367138,0.85,0.05524309461317335,260,7741,56,[0 0 0 ... 0 0 0],"GAT_VGAE(
  (gat1): GATConv(1000, 64, heads=4)
  (gat2): GATConv(256, 16, heads=1)
  (mu_net): Linear(in_features=16, out_features=16, bias=True)
  (log_var_net): Linear(in_features=16, out_features=16, bias=True)
  (decoder): Linear(in_features=16, out_features=12100, bias=True)
)"
f6983fdc-c69a-49cd-b9db-5687f3ba2492,64,16,0.005,4,0.7116911382536383,0.049277605779153764,0.7346153846153847,0.09235976789168278,260,3876,123,[0 0 0 ... 0 0 0],"GAT_VGAE(
  (gat1): GATConv(1000, 64, heads=4)
  (gat2): GATConv(256, 16, heads=1)
  (mu_net): Linear(in_features=16, out_features=16, bias=True)
  (log_var_net): Linear(in_features=16, out_features=16, bias=True)
  (decoder): Linear(in_features=16, out_features=12100, bias=True)
)"
b5cde9ca-1745-4b07-ad6a-3d3ace902c25,64,16,0.005,4,0.6604794698544698,0.03494889548302011,0.8153846153846154,0.06702497628833386,260,6066,82,[0 0 0 ... 0 0 0],"GAT_VGAE(
  (gat1): GATConv(1000, 64, heads=4)
  (gat2): GATConv(256, 16, heads=1)
  (mu_net): Linear(in_features=16, out_features=16, bias=True)
  (log_var_net): Linear(in_features=16, out_features=16, bias=True)
  (decoder): Linear(in_features=16, out_features=12100, bias=True)
)"
cb9d5933-752d-4dbd-bd1c-c30816ac68c1,64,16,0.005,4,0.6701663201663202,0.0384917517674784,0.7538461538461538,0.07324364723467862,260,5092,91,[0 0 0 ... 0 0 0],"GAT_VGAE(
  (gat1): GATConv(1000, 64, heads=4)
  (gat2): GATConv(256, 16, heads=1)
  (mu_net): Linear(in_features=16, out_features=16, bias=True)
  (log_var_net): Linear(in_features=16, out_features=16, bias=True)
  (decoder): Linear(in_features=16, out_features=12100, bias=True)
)"
a87d8f85-8607-4344-89a1-0fc015c9c1df,64,16,0.005,4,0.7029983108108109,0.045688847235238986,0.75,0.08613074204946997,260,4268,117,[0 0 0 ... 0 0 0],"GAT_VGAE(
  (gat1): GATConv(1000, 64, heads=4)
  (gat2): GATConv(256, 16, heads=1)
  (mu_net): Linear(in_features=16, out_features=16, bias=True)
  (log_var_net): Linear(in_features=16, out_features=16, bias=True)
  (decoder): Linear(in_features=16, out_features=12100, bias=True)
)"
4ecbd644-9da6-43e5-9530-ba26b3d11e8f,64,16,0.005,4,0.7236811330561331,0.05401543298085167,0.7269230769230769,0.1005586592178771,260,3499,134,[0 1 0 ... 0 0 0],"GAT_VGAE(
  (gat1): GATConv(1000, 64, heads=4)
  (gat2): GATConv(256, 16, heads=1)
  (mu_net): Linear(in_features=16, out_features=16, bias=True)
  (log_var_net): Linear(in_features=16, out_features=16, bias=True)
  (decoder): Linear(in_features=16, out_features=12100, bias=True)
)"
960f98f2-8590-4244-b646-b7ee48f03dc6,64,16,0.005,4,0.7254742723492724,0.05513196480938416,0.7230769230769231,0.10245231607629428,260,3410,131,[1 0 0 ... 0 0 0],"GAT_VGAE(
  (gat1): GATConv(1000, 64, heads=4)
  (gat2): GATConv(256, 16, heads=1)
  (mu_net): Linear(in_features=16, out_features=16, bias=True)
  (log_var_net): Linear(in_features=16, out_features=16, bias=True)
  (decoder): Linear(in_features=16, out_features=12100, bias=True)
)"
5feeef4d-aed0-458a-9f2b-c3bcc5d5b758,64,16,0.005,4,0.7133543399168399,0.046722454672245464,0.7730769230769231,0.08811924594476107,260,4302,119,[0 0 0 ... 0 0 0],"GAT_VGAE(
  (gat1): GATConv(1000, 64, heads=4)
  (gat2): GATConv(256, 16, heads=1)
  (mu_net): Linear(in_features=16, out_features=16, bias=True)
  (log_var_net): Linear(in_features=16, out_features=16, bias=True)
  (decoder): Linear(in_features=16, out_features=12100, bias=True)
)"
62101279-11e2-4ba2-ba9a-49fd436c79a0,64,16,0.005,4,0.6439091735966735,0.033705990322042384,0.7769230769230769,0.06460898768591077,260,5993,82,[0 0 0 ... 0 0 0],"GAT_VGAE(
  (gat1): GATConv(1000, 64, heads=4)
  (gat2): GATConv(256, 16, heads=1)
  (mu_net): Linear(in_features=16, out_features=16, bias=True)
  (log_var_net): Linear(in_features=16, out_features=16, bias=True)
  (decoder): Linear(in_features=16, out_features=12100, bias=True)
)"
f46fbd75-d036-4542-b5de-17378224c57a,64,16,0.005,4,0.6420185810810811,0.031927188673793704,0.85,0.061542745753272066,260,6922,72,[0 0 0 ... 0 0 0],"GAT_VGAE(
  (gat1): GATConv(1000, 64, heads=4)
  (gat2): GATConv(256, 16, heads=1)
  (mu_net): Linear(in_features=16, out_features=16, bias=True)
  (log_var_net): Linear(in_features=16, out_features=16, bias=True)
  (decoder): Linear(in_features=16, out_features=12100, bias=True)
)"
016ee939-02f8-4e0d-98a2-6a65348648b7,64,16,0.005,4,0.6166027806652807,0.029182879377431907,0.8653846153846154,0.056461731493099125,260,7710,73,[0 0 0 ... 0 0 0],"GAT_VGAE(
  (gat1): GATConv(1000, 64, heads=4)
  (gat2): GATConv(256, 16, heads=1)
  (mu_net): Linear(in_features=16, out_features=16, bias=True)
  (log_var_net): Linear(in_features=16, out_features=16, bias=True)
  (decoder): Linear(in_features=16, out_features=12100, bias=True)
)"
8671425d-488e-4fa7-b9e7-63b0a7e0bf14,64,16,0.005,4,0.5282029625779626,0.02276364929752801,0.9846153846153847,0.04449852250999479,260,11246,56,[1 0 0 ... 0 0 0],"GAT_VGAE(
  (gat1): GATConv(1000, 64, heads=4)
  (gat2): GATConv(256, 16, heads=1)
  (mu_net): Linear(in_features=16, out_features=16, bias=True)
  (log_var_net): Linear(in_features=16, out_features=16, bias=True)
  (decoder): Linear(in_features=16, out_features=12100, bias=True)
)"
5f253df3-c2ec-4fa1-b23d-8cbb2bfc6593,64,16,0.005,4,0.5,0.021487603305785124,1.0,0.042071197411003236,260,12100,51,[1 0 0 ... 0 0 0],"GAT_VGAE(
  (gat1): GATConv(1000, 64, heads=4)
  (gat2): GATConv(256, 16, heads=1)
  (mu_net): Linear(in_features=16, out_features=16, bias=True)
  (log_var_net): Linear(in_features=16, out_features=16, bias=True)
  (decoder): Linear(in_features=16, out_features=12100, bias=True)
)"
70cbdd50-a324-45fc-9f88-62b072fc35e1,64,16,0.005,4,0.7023453742203742,0.045265588914549654,0.7538461538461538,0.08540305010893247,260,4330,111,[0 0 0 ... 0 0 0],"GAT_VGAE(
  (gat1): GATConv(1000, 64, heads=4)
  (gat2): GATConv(256, 16, heads=1)
  (mu_net): Linear(in_features=16, out_features=16, bias=True)
  (log_var_net): Linear(in_features=16, out_features=16, bias=True)
  (decoder): Linear(in_features=16, out_features=12100, bias=True)
)"
682a5639-6ee4-4e92-8fd7-0b349f636bde,64,16,0.005,4,0.7022804054054054,0.045507584597432905,0.75,0.0858085808580858,260,4285,117,[0 0 0 ... 0 0 0],"GAT_VGAE(
  (gat1): GATConv(1000, 64, heads=4)
  (gat2): GATConv(256, 16, heads=1)
  (mu_net): Linear(in_features=16, out_features=16, bias=True)
  (log_var_net): Linear(in_features=16, out_features=16, bias=True)
  (decoder): Linear(in_features=16, out_features=12100, bias=True)
)"
5ee099c9-78f7-444f-9048-ff5513e565f8,64,16,0.005,4,0.7037162162162163,0.045871559633027525,0.75,0.08645533141210375,260,4251,104,[0 0 0 ... 0 0 0],"GAT_VGAE(
  (gat1): GATConv(1000, 64, heads=4)
  (gat2): GATConv(256, 16, heads=1)
  (mu_net): Linear(in_features=16, out_features=16, bias=True)
  (log_var_net): Linear(in_features=16, out_features=16, bias=True)
  (decoder): Linear(in_features=16, out_features=12100, bias=True)
)"
f2d15eb2-7272-41e8-ad99-8dbfb5a34723,64,16,0.005,4,0.7062110187110187,0.04597432905484247,0.7576923076923077,0.08668866886688668,260,4285,111,[0 1 0 ... 0 0 0],"GAT_VGAE(
  (gat1): GATConv(1000, 64, heads=4)
  (gat2): GATConv(256, 16, heads=1)
  (mu_net): Linear(in_features=16, out_features=16, bias=True)
  (log_var_net): Linear(in_features=16, out_features=16, bias=True)
  (decoder): Linear(in_features=16, out_features=12100, bias=True)
)"
76f09ed1-356a-472e-9a9f-32d475db7baf,64,16,0.005,4,0.7015624999999999,0.045327754532775454,0.75,0.08548882069267864,260,4302,115,[0 0 0 ... 0 0 0],"GAT_VGAE(
  (gat1): GATConv(1000, 64, heads=4)
  (gat2): GATConv(256, 16, heads=1)
  (mu_net): Linear(in_features=16, out_features=16, bias=True)
  (log_var_net): Linear(in_features=16, out_features=16, bias=True)
  (decoder): Linear(in_features=16, out_features=12100, bias=True)
)"
02a40131-fa72-4d4a-b173-0b92778f5aa2,64,16,0.005,4,0.6653781185031185,0.03563025210084034,0.8153846153846154,0.06827697262479872,260,5950,84,[0 0 0 ... 0 0 0],"GAT_VGAE(
  (gat1): GATConv(1000, 64, heads=4)
  (gat2): GATConv(256, 16, heads=1)
  (mu_net): Linear(in_features=16, out_features=16, bias=True)
  (log_var_net): Linear(in_features=16, out_features=16, bias=True)
  (decoder): Linear(in_features=16, out_features=12100, bias=True)
)"
32c02546-8198-419a-a53d-d2ee3004b17a,64,16,0.005,4,0.6840923856548857,0.03989779874213836,0.7807692307692308,0.07591623036649214,260,5088,103,[0 0 0 ... 0 0 0],"GAT_VGAE(
  (gat1): GATConv(1000, 64, heads=4)
  (gat2): GATConv(256, 16, heads=1)
  (mu_net): Linear(in_features=16, out_features=16, bias=True)
  (log_var_net): Linear(in_features=16, out_features=16, bias=True)
  (decoder): Linear(in_features=16, out_features=12100, bias=True)
)"
89277bbb-9625-4190-9b33-85a52c84e5b7,64,16,0.005,4,0.682806003118503,0.03949661181026137,0.7846153846153846,0.07520737327188941,260,5165,84,[0 0 0 ... 0 0 0],"GAT_VGAE(
  (gat1): GATConv(1000, 64, heads=4)
  (gat2): GATConv(256, 16, heads=1)
  (mu_net): Linear(in_features=16, out_features=16, bias=True)
  (log_var_net): Linear(in_features=16, out_features=16, bias=True)
  (decoder): Linear(in_features=16, out_features=12100, bias=True)
)"
4c5dad65-4cdb-44e5-931c-8907e5ab0c65,64,16,0.005,4,0.7014975311850312,0.045571999060371154,0.7461538461538462,0.08589771972548152,260,4257,111,[0 0 0 ... 0 0 0],"GAT_VGAE(
  (gat1): GATConv(1000, 64, heads=4)
  (gat2): GATConv(256, 16, heads=1)
  (mu_net): Linear(in_features=16, out_features=16, bias=True)
  (log_var_net): Linear(in_features=16, out_features=16, bias=True)
  (decoder): Linear(in_features=16, out_features=12100, bias=True)
)"
e618c737-4d73-4d57-876c-d50db55c7ae3,64,16,0.005,4,0.6976936070686071,0.045133991537376586,0.7384615384615385,0.08506867523260966,260,4254,107,[0 0 0 ... 0 0 0],"GAT_VGAE(
  (gat1): GATConv(1000, 64, heads=4)
  (gat2): GATConv(256, 16, heads=1)
  (mu_net): Linear(in_features=16, out_features=16, bias=True)
  (log_var_net): Linear(in_features=16, out_features=16, bias=True)
  (decoder): Linear(in_features=16, out_features=12100, bias=True)
)"
3eba1914-4a4c-4842-9ad3-2f0e71190bd3,64,16,0.005,4,0.7016664501039501,0.04561486009875382,0.7461538461538462,0.08597385331265234,260,4253,111,[1 1 0 ... 0 0 0],"GAT_VGAE(
  (gat1): GATConv(1000, 64, heads=4)
  (gat2): GATConv(256, 16, heads=1)
  (mu_net): Linear(in_features=16, out_features=16, bias=True)
  (log_var_net): Linear(in_features=16, out_features=16, bias=True)
  (decoder): Linear(in_features=16, out_features=12100, bias=True)
)"
d1a6c48d-d0d6-4138-bb6f-0e71062d2d54,64,16,0.005,4,0.6618762993762993,0.08553654743390357,0.4230769230769231,0.1423027166882277,260,1286,127,[0 0 0 ... 0 0 0],"GAT_VGAE(
  (gat1): GATConv(1000, 64, heads=4)
  (gat2): GATConv(256, 16, heads=1)
  (mu_net): Linear(in_features=16, out_features=16, bias=True)
  (log_var_net): Linear(in_features=16, out_features=16, bias=True)
  (decoder): Linear(in_features=16, out_features=12100, bias=True)
)"
75d3b5d2-3a6f-4fbe-8a87-3f8970a5c44a,64,16,0.005,4,0.6618762993762993,0.08553654743390357,0.4230769230769231,0.1423027166882277,260,1286,121,[0 0 0 ... 0 0 0],"GAT_VGAE(
  (gat1): GATConv(1000, 64, heads=4)
  (gat2): GATConv(256, 16, heads=1)
  (mu_net): Linear(in_features=16, out_features=16, bias=True)
  (log_var_net): Linear(in_features=16, out_features=16, bias=True)
  (decoder): Linear(in_features=16, out_features=12100, bias=True)
)"
3d0adfda-fd10-464e-8ea5-847edf01a7dc,64,16,0.005,4,0.6618762993762993,0.08553654743390357,0.4230769230769231,0.1423027166882277,260,1286,127,[0 0 0 ... 0 0 0],"GAT_VGAE(
  (gat1): GATConv(1000, 64, heads=4)
  (gat2): GATConv(256, 16, heads=1)
  (mu_net): Linear(in_features=16, out_features=16, bias=True)
  (log_var_net): Linear(in_features=16, out_features=16, bias=True)
  (decoder): Linear(in_features=16, out_features=12100, bias=True)
)"
84a52f51-6723-42aa-b511-759f05ba8d14,64,16,0.005,4,0.6618762993762993,0.08553654743390357,0.4230769230769231,0.1423027166882277,260,1286,123,[0 0 0 ... 0 0 0],"GAT_VGAE(
  (gat1): GATConv(1000, 64, heads=4)
  (gat2): GATConv(256, 16, heads=1)
  (mu_net): Linear(in_features=16, out_features=16, bias=True)
  (log_var_net): Linear(in_features=16, out_features=16, bias=True)
  (decoder): Linear(in_features=16, out_features=12100, bias=True)
)"
00fdb8c3-cdeb-47ad-b18a-cb4c43f43a93,64,16,0.005,4,0.6618762993762993,0.08553654743390357,0.4230769230769231,0.1423027166882277,260,1286,125,[0 0 0 ... 0 0 0],"GAT_VGAE(
  (gat1): GATConv(1000, 64, heads=4)
  (gat2): GATConv(256, 16, heads=1)
  (mu_net): Linear(in_features=16, out_features=16, bias=True)
  (log_var_net): Linear(in_features=16, out_features=16, bias=True)
  (decoder): Linear(in_features=16, out_features=12100, bias=True)
)"
780855dc-e1ea-4cd7-9496-30648af344fe,64,16,0.005,4,0.7254742723492724,0.05513196480938416,0.7230769230769231,0.10245231607629428,260,3410,127,[0 0 0 ... 0 0 0],"GAT_VGAE(
  (gat1): GATConv(1000, 64, heads=4)
  (gat2): GATConv(256, 16, heads=1)
  (mu_net): Linear(in_features=16, out_features=16, bias=True)
  (log_var_net): Linear(in_features=16, out_features=16, bias=True)
  (decoder): Linear(in_features=16, out_features=12100, bias=True)
)"
bcb94250-4639-48a0-93f8-044da304ebc3,64,16,0.005,4,0.7254742723492724,0.05513196480938416,0.7230769230769231,0.10245231607629428,260,3410,144,[0 0 0 ... 0 0 0],"GAT_VGAE(
  (gat1): GATConv(1000, 64, heads=4)
  (gat2): GATConv(256, 16, heads=1)
  (mu_net): Linear(in_features=16, out_features=16, bias=True)
  (log_var_net): Linear(in_features=16, out_features=16, bias=True)
  (decoder): Linear(in_features=16, out_features=12100, bias=True)
)"
7de6a825-9b2e-4cd8-959e-aa033937341f,64,16,0.005,4,0.7254742723492724,0.05513196480938416,0.7230769230769231,0.10245231607629428,260,3410,133,[0 0 0 ... 0 0 0],"GAT_VGAE(
  (gat1): GATConv(1000, 64, heads=4)
  (gat2): GATConv(256, 16, heads=1)
  (mu_net): Linear(in_features=16, out_features=16, bias=True)
  (log_var_net): Linear(in_features=16, out_features=16, bias=True)
  (decoder): Linear(in_features=16, out_features=12100, bias=True)
)"
f952d297-adf1-44b5-8730-d2ad28e853fb,64,16,0.005,4,0.7254742723492724,0.05513196480938416,0.7230769230769231,0.10245231607629428,260,3410,146,[1 0 0 ... 0 0 1],"GAT_VGAE(
  (gat1): GATConv(1000, 64, heads=4)
  (gat2): GATConv(256, 16, heads=1)
  (mu_net): Linear(in_features=16, out_features=16, bias=True)
  (log_var_net): Linear(in_features=16, out_features=16, bias=True)
  (decoder): Linear(in_features=16, out_features=12100, bias=True)
)"
c07cd362-ddea-451b-9952-ee71c53fbedd,64,16,0.005,4,0.7645182968204685,0.0071474755425615655,0.710195530726257,0.014152518786529362,2864,284576,2048,[0 0 0 ... 0 0 0],"GAT_VGAE(
  (gat1): GATConv(1000, 64, heads=4)
  (gat2): GATConv(256, 16, heads=1)
  (mu_net): Linear(in_features=16, out_features=16, bias=True)
  (log_var_net): Linear(in_features=16, out_features=16, bias=True)
  (decoder): Linear(in_features=16, out_features=1562500, bias=True)
)"
f522caa2-da32-484f-8ecf-c48a62c9d38b,64,16,0.005,4,0.501240151219527,0.012485970819304153,0.01966850828729282,0.015275036471294946,9050,14256,1820,[0 0 0 ... 0 0 0],"GAT_VGAE(
  (gat1): GATConv(758, 64, heads=4)
  (gat2): GATConv(256, 16, heads=1)
  (mu_net): Linear(in_features=16, out_features=16, bias=True)
  (log_var_net): Linear(in_features=16, out_features=16, bias=True)
  (decoder): Linear(in_features=16, out_features=828100, bias=True)
)"
4217bc24-f49f-41cf-8868-4da282bb2988,64,16,0.005,4,0.501240151219527,0.012485970819304153,0.01966850828729282,0.015275036471294946,9050,14256,1845,[0 0 0 ... 0 0 0],"GAT_VGAE(
  (gat1): GATConv(758, 64, heads=4)
  (gat2): GATConv(256, 16, heads=1)
  (mu_net): Linear(in_features=16, out_features=16, bias=True)
  (log_var_net): Linear(in_features=16, out_features=16, bias=True)
  (decoder): Linear(in_features=16, out_features=828100, bias=True)
)"
39f2d214-ff13-496b-94dd-234dcf13dece,64,16,0.005,4,0.501240151219527,0.012485970819304153,0.01966850828729282,0.015275036471294946,9050,14256,1859,[0 0 0 ... 0 0 0],"GAT_VGAE(
  (gat1): GATConv(758, 64, heads=4)
  (gat2): GATConv(256, 16, heads=1)
  (mu_net): Linear(in_features=16, out_features=16, bias=True)
  (log_var_net): Linear(in_features=16, out_features=16, bias=True)
  (decoder): Linear(in_features=16, out_features=828100, bias=True)
)"
1d3465d5-0cda-4f54-a10b-8b0f93db4c0e,64,16,0.005,4,0.501240151219527,0.012485970819304153,0.01966850828729282,0.015275036471294946,9050,14256,1831,[0 0 0 ... 0 0 0],"GAT_VGAE(
  (gat1): GATConv(758, 64, heads=4)
  (gat2): GATConv(256, 16, heads=1)
  (mu_net): Linear(in_features=16, out_features=16, bias=True)
  (log_var_net): Linear(in_features=16, out_features=16, bias=True)
  (decoder): Linear(in_features=16, out_features=828100, bias=True)
)"
394b7c02-4b9b-4e8d-a581-2365a4dcc885,64,16,0.0005,8,0.49695571375137815,0.010717835855821707,0.3061878453038674,0.020710711496276034,9050,258541,1784,[0 0 0 ... 0 0 0],"GAT_VGAE(
  (gat1): GATConv(758, 64, heads=8)
  (gat2): GATConv(512, 16, heads=1)
  (mu_net): Linear(in_features=16, out_features=16, bias=True)
  (log_var_net): Linear(in_features=16, out_features=16, bias=True)
  (decoder): Linear(in_features=16, out_features=828100, bias=True)
)"
d1496953-0453-4eec-9477-b0e1d34ee373,64,16,0.005,8,0.501240151219527,0.012485970819304153,0.01966850828729282,0.015275036471294946,9050,14256,1814,[0 0 0 ... 0 0 0],"GAT_VGAE(
  (gat1): GATConv(758, 64, heads=8)
  (gat2): GATConv(512, 16, heads=1)
  (mu_net): Linear(in_features=16, out_features=16, bias=True)
  (log_var_net): Linear(in_features=16, out_features=16, bias=True)
  (decoder): Linear(in_features=16, out_features=828100, bias=True)
)"
5d5ac4bc-2f11-4833-aa48-b8f053e7d772,64,16,0.01,4,0.501240151219527,0.012485970819304153,0.01966850828729282,0.015275036471294946,9050,14256,1812,[0 0 0 ... 0 0 0],"GAT_VGAE(
  (gat1): GATConv(758, 64, heads=4)
  (gat2): GATConv(256, 16, heads=1)
  (mu_net): Linear(in_features=16, out_features=16, bias=True)
  (log_var_net): Linear(in_features=16, out_features=16, bias=True)
  (decoder): Linear(in_features=16, out_features=828100, bias=True)
)"
2d948243-3a07-4179-853b-6a90c6b81da9,64,16,0.01,4,0.501240151219527,0.012485970819304153,0.01966850828729282,0.015275036471294946,9050,14256,1834,[0 0 0 ... 0 0 0],"GAT_VGAE(
  (gat1): GATConv(758, 64, heads=4)
  (gat2): GATConv(256, 16, heads=4)
  (mu_net): Linear(in_features=16, out_features=16, bias=True)
  (log_var_net): Linear(in_features=16, out_features=16, bias=True)
  (decoder): Linear(in_features=16, out_features=828100, bias=True)
)"
38894acc-b0f2-4c05-8673-e1f1acf69423,64,16,0.01,4,0.7254742723492724,0.05513196480938416,0.7230769230769231,0.10245231607629428,260,3410,134,[0 0 0 ... 0 0 0],"GAT_VGAE(
  (gat1): GATConv(1000, 64, heads=4)
  (gat2): GATConv(256, 16, heads=1)
  (mu_net): Linear(in_features=16, out_features=16, bias=True)
  (log_var_net): Linear(in_features=16, out_features=16, bias=True)
  (decoder): Linear(in_features=16, out_features=12100, bias=True)
)"
58ca2630-8f7a-4562-a7fc-06f62b99ae3c,64,16,0.01,4,0.7645182968204685,0.0071474755425615655,0.710195530726257,0.014152518786529362,2864,284576,2053,[0 0 0 ... 0 0 0],"GAT_VGAE(
  (gat1): GATConv(1000, 64, heads=4)
  (gat2): GATConv(256, 16, heads=1)
  (mu_net): Linear(in_features=16, out_features=16, bias=True)
  (log_var_net): Linear(in_features=16, out_features=16, bias=True)
  (decoder): Linear(in_features=16, out_features=1562500, bias=True)
)"
3961238e-86c1-407f-8434-f92621499594,64,16,0.01,4,0.501240151219527,0.012485970819304153,0.01966850828729282,0.015275036471294946,9050,14256,1893,[0 0 0 ... 0 0 0],"GAT_VGAE(
  (gat1): GATConv(758, 64, heads=4)
  (gat2): GATConv(256, 16, heads=1)
  (mu_net): Linear(in_features=16, out_features=16, bias=True)
  (log_var_net): Linear(in_features=16, out_features=16, bias=True)
  (decoder): Linear(in_features=16, out_features=828100, bias=True)
)"
7af7c4ab-1926-4028-8048-e1c892a61512,64,16,0.01,4,0.501240151219527,0.012485970819304153,0.01966850828729282,0.015275036471294946,9050,14256,1740,[0 0 0 ... 0 0 0],"GAT_VGAE(
  (gat1): GATConv(758, 64, heads=4)
  (gat2): GATConv(256, 16, heads=1)
  (mu_net): Linear(in_features=16, out_features=16, bias=True)
  (log_var_net): Linear(in_features=16, out_features=16, bias=True)
  (decoder): Linear(in_features=16, out_features=828100, bias=True)
)"
367dab5c-fd05-4fda-bf13-c1148c2c178f,32,16,0.001,2,0.5048945500463581,0.012668533190365561,0.07049723756906077,0.021477504165895205,9050,50361,1440,[0 0 0 ... 0 0 0],"GAT_VGAE(
  (gat1): GATConv(758, 32, heads=2)
  (gat2): GATConv(64, 16, heads=1)
  (mu_net): Linear(in_features=16, out_features=16, bias=True)
  (log_var_net): Linear(in_features=16, out_features=16, bias=True)
  (decoder): Linear(in_features=16, out_features=828100, bias=True)
)"
367dab5c-fd05-4fda-bf13-c1148c2c178f,32,16,0.001,4,0.5016123888307469,0.011329399514057618,0.09016574585635359,0.02012950971322849,9050,72025,1756,[1 0 0 ... 0 0 0],"GAT_VGAE(
  (gat1): GATConv(758, 32, heads=4)
  (gat2): GATConv(128, 16, heads=1)
  (mu_net): Linear(in_features=16, out_features=16, bias=True)
  (log_var_net): Linear(in_features=16, out_features=16, bias=True)
  (decoder): Linear(in_features=16, out_features=828100, bias=True)
)"
367dab5c-fd05-4fda-bf13-c1148c2c178f,32,16,0.001,8,0.5019014213003138,0.011257561409272752,0.1287292817679558,0.020704485675694887,9050,103486,1627,[0 0 0 ... 0 0 0],"GAT_VGAE(
  (gat1): GATConv(758, 32, heads=8)
  (gat2): GATConv(256, 16, heads=1)
  (mu_net): Linear(in_features=16, out_features=16, bias=True)
  (log_var_net): Linear(in_features=16, out_features=16, bias=True)
  (decoder): Linear(in_features=16, out_features=828100, bias=True)
)"
367dab5c-fd05-4fda-bf13-c1148c2c178f,32,16,0.01,2,0.501240151219527,0.012485970819304153,0.01966850828729282,0.015275036471294946,9050,14256,1468,[0 0 0 ... 1 0 0],"GAT_VGAE(
  (gat1): GATConv(758, 32, heads=2)
  (gat2): GATConv(64, 16, heads=1)
  (mu_net): Linear(in_features=16, out_features=16, bias=True)
  (log_var_net): Linear(in_features=16, out_features=16, bias=True)
  (decoder): Linear(in_features=16, out_features=828100, bias=True)
)"
367dab5c-fd05-4fda-bf13-c1148c2c178f,32,16,0.01,4,0.501240151219527,0.012485970819304153,0.01966850828729282,0.015275036471294946,9050,14256,1468,[0 0 0 ... 1 0 0],"GAT_VGAE(
  (gat1): GATConv(758, 32, heads=4)
  (gat2): GATConv(128, 16, heads=1)
  (mu_net): Linear(in_features=16, out_features=16, bias=True)
  (log_var_net): Linear(in_features=16, out_features=16, bias=True)
  (decoder): Linear(in_features=16, out_features=828100, bias=True)
)"
367dab5c-fd05-4fda-bf13-c1148c2c178f,32,16,0.01,8,0.501240151219527,0.012485970819304153,0.01966850828729282,0.015275036471294946,9050,14256,1468,[0 0 0 ... 1 0 0],"GAT_VGAE(
  (gat1): GATConv(758, 32, heads=8)
  (gat2): GATConv(256, 16, heads=1)
  (mu_net): Linear(in_features=16, out_features=16, bias=True)
  (log_var_net): Linear(in_features=16, out_features=16, bias=True)
  (decoder): Linear(in_features=16, out_features=828100, bias=True)
)"
249ff0bc-800b-4025-bb2b-b805b3967326,32,16,0.001,2,0.5,0.010928631807752687,1.0,0.021620975930239504,9050,828100,1115,[0 0 0 ... 0 0 0],"GAT_VGAE(
  (gat1): GATConv(758, 32, heads=2)
  (gat2): GATConv(64, 16, heads=1)
  (mu_net): Linear(in_features=16, out_features=16, bias=True)
  (log_var_net): Linear(in_features=16, out_features=16, bias=True)
  (decoder): Linear(in_features=16, out_features=828100, bias=True)
)"
249ff0bc-800b-4025-bb2b-b805b3967326,32,16,0.001,4,0.5,0.010928631807752687,1.0,0.021620975930239504,9050,828100,1115,[0 0 0 ... 0 0 0],"GAT_VGAE(
  (gat1): GATConv(758, 32, heads=4)
  (gat2): GATConv(128, 16, heads=1)
  (mu_net): Linear(in_features=16, out_features=16, bias=True)
  (log_var_net): Linear(in_features=16, out_features=16, bias=True)
  (decoder): Linear(in_features=16, out_features=828100, bias=True)
)"
249ff0bc-800b-4025-bb2b-b805b3967326,32,16,0.001,8,0.5,0.010928631807752687,1.0,0.021620975930239504,9050,828100,1115,[0 0 0 ... 0 0 0],"GAT_VGAE(
  (gat1): GATConv(758, 32, heads=8)
  (gat2): GATConv(256, 16, heads=1)
  (mu_net): Linear(in_features=16, out_features=16, bias=True)
  (log_var_net): Linear(in_features=16, out_features=16, bias=True)
  (decoder): Linear(in_features=16, out_features=828100, bias=True)
)"
249ff0bc-800b-4025-bb2b-b805b3967326,32,16,0.01,2,0.5,0.010928631807752687,1.0,0.021620975930239504,9050,828100,1115,[0 0 0 ... 0 0 0],"GAT_VGAE(
  (gat1): GATConv(758, 32, heads=2)
  (gat2): GATConv(64, 16, heads=1)
  (mu_net): Linear(in_features=16, out_features=16, bias=True)
  (log_var_net): Linear(in_features=16, out_features=16, bias=True)
  (decoder): Linear(in_features=16, out_features=828100, bias=True)
)"
249ff0bc-800b-4025-bb2b-b805b3967326,32,16,0.01,4,0.5,0.010928631807752687,1.0,0.021620975930239504,9050,828100,1115,[0 0 0 ... 0 0 0],"GAT_VGAE(
  (gat1): GATConv(758, 32, heads=4)
  (gat2): GATConv(128, 16, heads=1)
  (mu_net): Linear(in_features=16, out_features=16, bias=True)
  (log_var_net): Linear(in_features=16, out_features=16, bias=True)
  (decoder): Linear(in_features=16, out_features=828100, bias=True)
)"
249ff0bc-800b-4025-bb2b-b805b3967326,32,16,0.01,8,0.5,0.010928631807752687,1.0,0.021620975930239504,9050,828100,1115,[0 0 0 ... 0 0 0],"GAT_VGAE(
  (gat1): GATConv(758, 32, heads=8)
  (gat2): GATConv(256, 16, heads=1)
  (mu_net): Linear(in_features=16, out_features=16, bias=True)
  (log_var_net): Linear(in_features=16, out_features=16, bias=True)
  (decoder): Linear(in_features=16, out_features=828100, bias=True)
)"
249ff0bc-800b-4025-bb2b-b805b3967326,32,16,0.1,2,0.501240151219527,0.012485970819304153,0.01966850828729282,0.015275036471294946,9050,14256,1468,[0 0 0 ... 1 0 0],"GAT_VGAE(
  (gat1): GATConv(758, 32, heads=2)
  (gat2): GATConv(64, 16, heads=1)
  (mu_net): Linear(in_features=16, out_features=16, bias=True)
  (log_var_net): Linear(in_features=16, out_features=16, bias=True)
  (decoder): Linear(in_features=16, out_features=828100, bias=True)
)"
45f32d75-5b71-4e10-a809-7441db2fdc6b,32,16,0.001,2,0.5,0.010928631807752687,1.0,0.021620975930239504,9050,828100,1115,[0 0 0 ... 0 0 0],"GAT_VGAE(
  (gat1): GATConv(758, 32, heads=2)
  (gat2): GATConv(64, 16, heads=1)
  (mu_net): Linear(in_features=16, out_features=16, bias=True)
  (log_var_net): Linear(in_features=16, out_features=16, bias=True)
  (decoder): Linear(in_features=16, out_features=828100, bias=True)
)"
45f32d75-5b71-4e10-a809-7441db2fdc6b,32,16,0.001,4,0.5,0.010928631807752687,1.0,0.021620975930239504,9050,828100,1115,[0 0 0 ... 0 0 0],"GAT_VGAE(
  (gat1): GATConv(758, 32, heads=4)
  (gat2): GATConv(128, 16, heads=1)
  (mu_net): Linear(in_features=16, out_features=16, bias=True)
  (log_var_net): Linear(in_features=16, out_features=16, bias=True)
  (decoder): Linear(in_features=16, out_features=828100, bias=True)
)"
45f32d75-5b71-4e10-a809-7441db2fdc6b,32,16,0.001,8,0.5,0.010928631807752687,1.0,0.021620975930239504,9050,828100,1115,[0 0 0 ... 0 0 0],"GAT_VGAE(
  (gat1): GATConv(758, 32, heads=8)
  (gat2): GATConv(256, 16, heads=1)
  (mu_net): Linear(in_features=16, out_features=16, bias=True)
  (log_var_net): Linear(in_features=16, out_features=16, bias=True)
  (decoder): Linear(in_features=16, out_features=828100, bias=True)
)"
45f32d75-5b71-4e10-a809-7441db2fdc6b,32,16,0.01,2,0.5,0.010928631807752687,1.0,0.021620975930239504,9050,828100,1115,[0 0 0 ... 0 0 0],"GAT_VGAE(
  (gat1): GATConv(758, 32, heads=2)
  (gat2): GATConv(64, 16, heads=1)
  (mu_net): Linear(in_features=16, out_features=16, bias=True)
  (log_var_net): Linear(in_features=16, out_features=16, bias=True)
  (decoder): Linear(in_features=16, out_features=828100, bias=True)
)"
45f32d75-5b71-4e10-a809-7441db2fdc6b,32,16,0.01,4,0.5,0.010928631807752687,1.0,0.021620975930239504,9050,828100,1115,[0 0 0 ... 0 0 0],"GAT_VGAE(
  (gat1): GATConv(758, 32, heads=4)
  (gat2): GATConv(128, 16, heads=1)
  (mu_net): Linear(in_features=16, out_features=16, bias=True)
  (log_var_net): Linear(in_features=16, out_features=16, bias=True)
  (decoder): Linear(in_features=16, out_features=828100, bias=True)
)"
45f32d75-5b71-4e10-a809-7441db2fdc6b,32,16,0.01,8,0.5,0.010928631807752687,1.0,0.021620975930239504,9050,828100,1115,[0 0 0 ... 0 0 0],"GAT_VGAE(
  (gat1): GATConv(758, 32, heads=8)
  (gat2): GATConv(256, 16, heads=1)
  (mu_net): Linear(in_features=16, out_features=16, bias=True)
  (log_var_net): Linear(in_features=16, out_features=16, bias=True)
  (decoder): Linear(in_features=16, out_features=828100, bias=True)
)"
2ab4cf61-b1a9-4b5b-aba9-8ebf021233b6,32,16,0.001,2,0.5,0.010928631807752687,1.0,0.021620975930239504,9050,828100,1115,[0 0 0 ... 0 0 0],"GAT_VGAE(
  (gat1): GATConv(758, 32, heads=2)
  (gat2): GATConv(64, 16, heads=1)
  (mu_net): Linear(in_features=16, out_features=16, bias=True)
  (log_var_net): Linear(in_features=16, out_features=16, bias=True)
  (decoder): Linear(in_features=16, out_features=828100, bias=True)
)"
2ab4cf61-b1a9-4b5b-aba9-8ebf021233b6,32,16,0.001,4,0.5,0.010928631807752687,1.0,0.021620975930239504,9050,828100,1115,[0 0 0 ... 0 0 0],"GAT_VGAE(
  (gat1): GATConv(758, 32, heads=4)
  (gat2): GATConv(128, 16, heads=1)
  (mu_net): Linear(in_features=16, out_features=16, bias=True)
  (log_var_net): Linear(in_features=16, out_features=16, bias=True)
  (decoder): Linear(in_features=16, out_features=828100, bias=True)
)"
2ab4cf61-b1a9-4b5b-aba9-8ebf021233b6,32,16,0.001,8,0.5,0.010928631807752687,1.0,0.021620975930239504,9050,828100,1115,[0 0 0 ... 0 0 0],"GAT_VGAE(
  (gat1): GATConv(758, 32, heads=8)
  (gat2): GATConv(256, 16, heads=1)
  (mu_net): Linear(in_features=16, out_features=16, bias=True)
  (log_var_net): Linear(in_features=16, out_features=16, bias=True)
  (decoder): Linear(in_features=16, out_features=828100, bias=True)
)"
2ab4cf61-b1a9-4b5b-aba9-8ebf021233b6,32,16,0.01,2,0.5,0.010928631807752687,1.0,0.021620975930239504,9050,828100,1115,[0 0 0 ... 0 0 0],"GAT_VGAE(
  (gat1): GATConv(758, 32, heads=2)
  (gat2): GATConv(64, 16, heads=1)
  (mu_net): Linear(in_features=16, out_features=16, bias=True)
  (log_var_net): Linear(in_features=16, out_features=16, bias=True)
  (decoder): Linear(in_features=16, out_features=828100, bias=True)
)"
2ab4cf61-b1a9-4b5b-aba9-8ebf021233b6,32,16,0.01,4,0.5,0.010928631807752687,1.0,0.021620975930239504,9050,828100,1115,[0 0 0 ... 0 0 0],"GAT_VGAE(
  (gat1): GATConv(758, 32, heads=4)
  (gat2): GATConv(128, 16, heads=1)
  (mu_net): Linear(in_features=16, out_features=16, bias=True)
  (log_var_net): Linear(in_features=16, out_features=16, bias=True)
  (decoder): Linear(in_features=16, out_features=828100, bias=True)
)"
2ab4cf61-b1a9-4b5b-aba9-8ebf021233b6,32,16,0.01,8,0.5,0.010928631807752687,1.0,0.021620975930239504,9050,828100,1115,[0 0 0 ... 0 0 0],"GAT_VGAE(
  (gat1): GATConv(758, 32, heads=8)
  (gat2): GATConv(256, 16, heads=1)
  (mu_net): Linear(in_features=16, out_features=16, bias=True)
  (log_var_net): Linear(in_features=16, out_features=16, bias=True)
  (decoder): Linear(in_features=16, out_features=828100, bias=True)
)"
da094d12-0a33-47ca-8c4f-921b1ee72b29,64,16,0.001,4,0.499392588975032,0.010798878348547222,0.1,0.019492757525173657,9050,83805,1831,[0 0 0 ... 0 0 0],"GAT_VGAE(
  (gat1): GATConv(758, 64, heads=4)
  (gat2): GATConv(256, 16, heads=1)
  (mu_net): Linear(in_features=16, out_features=16, bias=True)
  (log_var_net): Linear(in_features=16, out_features=16, bias=True)
  (decoder): Linear(in_features=16, out_features=828100, bias=True)
)"
9dcc07bd-2317-440b-ae2b-31230e09834e,64,16,0.005,4,0.501240151219527,0.012485970819304153,0.01966850828729282,0.015275036471294946,9050,14256,1824,[0 0 0 ... 0 0 0],"GAT_VGAE(
  (gat1): GATConv(758, 64, heads=4)
  (gat2): GATConv(256, 16, heads=1)
  (mu_net): Linear(in_features=16, out_features=16, bias=True)
  (log_var_net): Linear(in_features=16, out_features=16, bias=True)
  (decoder): Linear(in_features=16, out_features=828100, bias=True)
)"
e78941e9-44e3-4f55-8207-9877e8811445,64,16,0.01,4,0.501240151219527,0.012485970819304153,0.01966850828729282,0.015275036471294946,9050,14256,1822,[0 0 0 ... 0 0 0],"GAT_VGAE(
  (gat1): GATConv(758, 64, heads=4)
  (gat2): GATConv(256, 16, heads=1)
  (mu_net): Linear(in_features=16, out_features=16, bias=True)
  (log_var_net): Linear(in_features=16, out_features=16, bias=True)
  (decoder): Linear(in_features=16, out_features=828100, bias=True)
)"
3f5f76b3-2d00-48ad-89c5-e5663f2b6886,64,16,0.05,4,0.49875984878047297,0.010901352101877019,0.9803314917127072,0.02156292304962729,9050,813844,1275,[0 0 0 ... 0 0 0],"GAT_VGAE(
  (gat1): GATConv(758, 64, heads=4)
  (gat2): GATConv(256, 16, heads=1)
  (mu_net): Linear(in_features=16, out_features=16, bias=True)
  (log_var_net): Linear(in_features=16, out_features=16, bias=True)
  (decoder): Linear(in_features=16, out_features=828100, bias=True)
)"
218767fe-9f8c-4f3f-aff8-374de46fb71a,64,16,0.001,4,0.6932205041580042,0.04703742203742204,0.6961538461538461,0.0881207400194742,260,3848,128,[0 0 0 ... 0 0 0],"GAT_VGAE(
  (gat1): GATConv(1000, 64, heads=4)
  (gat2): GATConv(256, 16, heads=1)
  (mu_net): Linear(in_features=16, out_features=16, bias=True)
  (log_var_net): Linear(in_features=16, out_features=16, bias=True)
  (decoder): Linear(in_features=16, out_features=12100, bias=True)
)"
3e58651e-4d63-4c81-806b-d061e332552e,64,16,0.005,4,0.7254742723492724,0.05513196480938416,0.7230769230769231,0.10245231607629428,260,3410,125,[0 0 0 ... 0 1 0],"GAT_VGAE(
  (gat1): GATConv(1000, 64, heads=4)
  (gat2): GATConv(256, 16, heads=1)
  (mu_net): Linear(in_features=16, out_features=16, bias=True)
  (log_var_net): Linear(in_features=16, out_features=16, bias=True)
  (decoder): Linear(in_features=16, out_features=12100, bias=True)
)"
472cfd27-649e-4b42-bc70-b8d1b0d3a713,64,16,0.01,4,0.7254742723492724,0.05513196480938416,0.7230769230769231,0.10245231607629428,260,3410,128,[0 0 0 ... 0 0 0],"GAT_VGAE(
  (gat1): GATConv(1000, 64, heads=4)
  (gat2): GATConv(256, 16, heads=1)
  (mu_net): Linear(in_features=16, out_features=16, bias=True)
  (log_var_net): Linear(in_features=16, out_features=16, bias=True)
  (decoder): Linear(in_features=16, out_features=12100, bias=True)
)"
399da4a2-88f7-44f2-846b-8d0fc0a7528d,64,16,0.001,4,0.6846673596673598,0.04495504495504495,0.6923076923076923,0.08442776735459662,260,4004,135,[1 0 0 ... 0 0 0],"GAT_VGAE(
  (gat1): GATConv(1000, 64, heads=4)
  (gat2): GATConv(256, 16, heads=1)
  (mu_net): Linear(in_features=16, out_features=16, bias=True)
  (log_var_net): Linear(in_features=16, out_features=16, bias=True)
  (decoder): Linear(in_features=16, out_features=12100, bias=True)
)"
7a1fafca-54fb-4957-a2c7-988504705d3e,64,16,0.005,4,0.7254742723492724,0.05513196480938416,0.7230769230769231,0.10245231607629428,260,3410,144,[1 0 0 ... 0 0 0],"GAT_VGAE(
  (gat1): GATConv(1000, 64, heads=4)
  (gat2): GATConv(256, 16, heads=1)
  (mu_net): Linear(in_features=16, out_features=16, bias=True)
  (log_var_net): Linear(in_features=16, out_features=16, bias=True)
  (decoder): Linear(in_features=16, out_features=12100, bias=True)
)"
6d98ac2c-50b2-4450-a634-438523dc41ae,64,16,0.01,4,0.7254742723492724,0.05513196480938416,0.7230769230769231,0.10245231607629428,260,3410,134,[0 0 0 ... 0 0 0],"GAT_VGAE(
  (gat1): GATConv(1000, 64, heads=4)
  (gat2): GATConv(256, 16, heads=1)
  (mu_net): Linear(in_features=16, out_features=16, bias=True)
  (log_var_net): Linear(in_features=16, out_features=16, bias=True)
  (decoder): Linear(in_features=16, out_features=12100, bias=True)
)"
1453fb80-ffc7-4d17-a907-92f864374e03,64,16,0.001,4,0.6713779885654886,0.04282917278511992,0.6730769230769231,0.08053382420616659,260,4086,134,[0 1 0 ... 0 0 0],"GAT_VGAE(
  (gat1): GATConv(1000, 64, heads=4)
  (gat2): GATConv(256, 16, heads=1)
  (mu_net): Linear(in_features=16, out_features=16, bias=True)
  (log_var_net): Linear(in_features=16, out_features=16, bias=True)
  (decoder): Linear(in_features=16, out_features=12100, bias=True)
)"
61197e58-5abc-42dc-95e8-901527f50c75,64,16,0.005,4,0.7254742723492724,0.05513196480938416,0.7230769230769231,0.10245231607629428,260,3410,144,[0 0 1 ... 0 0 0],"GAT_VGAE(
  (gat1): GATConv(1000, 64, heads=4)
  (gat2): GATConv(256, 16, heads=1)
  (mu_net): Linear(in_features=16, out_features=16, bias=True)
  (log_var_net): Linear(in_features=16, out_features=16, bias=True)
  (decoder): Linear(in_features=16, out_features=12100, bias=True)
)"
96109485-7529-480b-a895-c116f2c1bac7,64,16,0.0001,4,0.5301487785862785,0.024110807113543093,0.5423076923076923,0.04616895874263261,260,5848,58,[0 0 0 ... 0 0 0],"GAT_VGAE(
  (gat1): GATConv(1000, 64, heads=4)
  (gat2): GATConv(256, 16, heads=1)
  (mu_net): Linear(in_features=16, out_features=16, bias=True)
  (log_var_net): Linear(in_features=16, out_features=16, bias=True)
  (decoder): Linear(in_features=16, out_features=12100, bias=True)
)"
dc8d2c5f-544b-4f79-b334-1366da6f7ffa,64,16,0.0005,4,0.5817210239085239,0.029963310232368527,0.5653846153846154,0.056910569105691054,260,4906,90,[0 0 0 ... 0 0 0],"GAT_VGAE(
  (gat1): GATConv(1000, 64, heads=4)
  (gat2): GATConv(256, 16, heads=1)
  (mu_net): Linear(in_features=16, out_features=16, bias=True)
  (log_var_net): Linear(in_features=16, out_features=16, bias=True)
  (decoder): Linear(in_features=16, out_features=12100, bias=True)
)"
315497f3-8db3-4f34-aa14-4fdf609624cd,64,16,0.001,4,0.672199844074844,0.04328358208955224,0.6692307692307692,0.08130841121495327,260,4020,128,[0 0 0 ... 0 0 0],"GAT_VGAE(
  (gat1): GATConv(1000, 64, heads=4)
  (gat2): GATConv(256, 16, heads=1)
  (mu_net): Linear(in_features=16, out_features=16, bias=True)
  (log_var_net): Linear(in_features=16, out_features=16, bias=True)
  (decoder): Linear(in_features=16, out_features=12100, bias=True)
)"
aeefcf3d-9ab4-4365-b54e-0faa3be4b89b,64,16,0.005,4,0.7254742723492724,0.05513196480938416,0.7230769230769231,0.10245231607629428,260,3410,134,[0 0 0 ... 0 0 0],"GAT_VGAE(
  (gat1): GATConv(1000, 64, heads=4)
  (gat2): GATConv(256, 16, heads=1)
  (mu_net): Linear(in_features=16, out_features=16, bias=True)
  (log_var_net): Linear(in_features=16, out_features=16, bias=True)
  (decoder): Linear(in_features=16, out_features=12100, bias=True)
)"
7412a30a-f48e-474e-ad1f-6410802fedfb,64,16,0.0001,4,0.506331211018711,0.022042362665748234,0.49230769230769234,0.04219548376462832,260,5807,59,[0 0 0 ... 0 0 0],"GAT_VGAE(
  (gat1): GATConv(1000, 64, heads=4)
  (gat2): GATConv(256, 16, heads=1)
  (mu_net): Linear(in_features=16, out_features=16, bias=True)
  (log_var_net): Linear(in_features=16, out_features=16, bias=True)
  (decoder): Linear(in_features=16, out_features=12100, bias=True)
)"
3cbc0248-6689-41b8-b9f7-2c7611a4cf99,64,16,0.0005,4,0.5749545218295218,0.02945477334447462,0.5423076923076923,0.05587477709530414,260,4787,93,[0 0 0 ... 0 0 0],"GAT_VGAE(
  (gat1): GATConv(1000, 64, heads=4)
  (gat2): GATConv(256, 16, heads=1)
  (mu_net): Linear(in_features=16, out_features=16, bias=True)
  (log_var_net): Linear(in_features=16, out_features=16, bias=True)
  (decoder): Linear(in_features=16, out_features=12100, bias=True)
)"
43df1cc5-4f02-4810-8347-9852758ef2dc,64,16,0.001,4,0.6843327702702703,0.044336175395858705,0.7,0.0833906071019473,260,4105,148,[0 0 0 ... 0 0 0],"GAT_VGAE(
  (gat1): GATConv(1000, 64, heads=4)
  (gat2): GATConv(256, 16, heads=1)
  (mu_net): Linear(in_features=16, out_features=16, bias=True)
  (log_var_net): Linear(in_features=16, out_features=16, bias=True)
  (decoder): Linear(in_features=16, out_features=12100, bias=True)
)"
19c93d04-3403-4eb5-8197-3a57da15c376,64,16,0.005,4,0.7254742723492724,0.05513196480938416,0.7230769230769231,0.10245231607629428,260,3410,130,[0 0 0 ... 0 0 0],"GAT_VGAE(
  (gat1): GATConv(1000, 64, heads=4)
  (gat2): GATConv(256, 16, heads=1)
  (mu_net): Linear(in_features=16, out_features=16, bias=True)
  (log_var_net): Linear(in_features=16, out_features=16, bias=True)
  (decoder): Linear(in_features=16, out_features=12100, bias=True)
)"
e9445ac2-6a34-4f7a-bdd6-f99ad2dc78ed,64,16,0.0001,4,0.5364475051975052,0.02463891248937978,0.5576923076923077,0.047192839707078924,260,5885,62,[0 0 0 ... 0 0 0],"GAT_VGAE(
  (gat1): GATConv(1000, 64, heads=4)
  (gat2): GATConv(256, 16, heads=1)
  (mu_net): Linear(in_features=16, out_features=16, bias=True)
  (log_var_net): Linear(in_features=16, out_features=16, bias=True)
  (decoder): Linear(in_features=16, out_features=12100, bias=True)
)"
c88b975c-99e5-4b66-92e1-109aff1cafc4,64,16,0.0005,4,0.5858725311850312,0.029922779922779922,0.5961538461538461,0.05698529411764706,260,5180,93,[0 0 0 ... 0 0 0],"GAT_VGAE(
  (gat1): GATConv(1000, 64, heads=4)
  (gat2): GATConv(256, 16, heads=1)
  (mu_net): Linear(in_features=16, out_features=16, bias=True)
  (log_var_net): Linear(in_features=16, out_features=16, bias=True)
  (decoder): Linear(in_features=16, out_features=12100, bias=True)
)"
6e3ca6c7-69ba-4dd3-8881-3a88f67d6aee,64,16,0.001,4,0.6872888513513513,0.04510532837670384,0.7,0.08474970896391153,260,4035,133,[0 0 0 ... 0 0 0],"GAT_VGAE(
  (gat1): GATConv(1000, 64, heads=4)
  (gat2): GATConv(256, 16, heads=1)
  (mu_net): Linear(in_features=16, out_features=16, bias=True)
  (log_var_net): Linear(in_features=16, out_features=16, bias=True)
  (decoder): Linear(in_features=16, out_features=12100, bias=True)
)"
d0b42f38-56ef-4868-bdb5-6c598935e37e,64,16,0.005,4,0.7254742723492724,0.05513196480938416,0.7230769230769231,0.10245231607629428,260,3410,137,[0 0 0 ... 0 0 0],"GAT_VGAE(
  (gat1): GATConv(1000, 64, heads=4)
  (gat2): GATConv(256, 16, heads=1)
  (mu_net): Linear(in_features=16, out_features=16, bias=True)
  (log_var_net): Linear(in_features=16, out_features=16, bias=True)
  (decoder): Linear(in_features=16, out_features=12100, bias=True)
)"
238c3377-97da-4737-9624-bb019353e05c,64,16,0.0001,4,0.5330398908523908,0.02442002442002442,0.5384615384615384,0.046721174703821124,260,5733,64,[0 0 0 ... 0 0 0],"GAT_VGAE(
  (gat1): GATConv(1000, 64, heads=4)
  (gat2): GATConv(256, 16, heads=1)
  (mu_net): Linear(in_features=16, out_features=16, bias=True)
  (log_var_net): Linear(in_features=16, out_features=16, bias=True)
  (decoder): Linear(in_features=16, out_features=12100, bias=True)
)"
6c5b5c7b-dc3e-41de-ae06-2ea1fa04d93a,64,16,0.0005,4,0.5764617983367983,0.029293739967897272,0.5615384615384615,0.05568268497330282,260,4984,93,[0 0 0 ... 0 0 0],"GAT_VGAE(
  (gat1): GATConv(1000, 64, heads=4)
  (gat2): GATConv(256, 16, heads=1)
  (mu_net): Linear(in_features=16, out_features=16, bias=True)
  (log_var_net): Linear(in_features=16, out_features=16, bias=True)
  (decoder): Linear(in_features=16, out_features=12100, bias=True)
)"
ab3dcbcc-a0c8-4f23-a95d-82197da91c4c,64,16,0.001,4,0.6553794178794179,0.7377656945130994,,,,,,,"GAT_VGAE(
  (gat1): GATConv(1000, 64, heads=4)
  (gat2): GATConv(256, 16, heads=1)
  (mu_net): Linear(in_features=16, out_features=16, bias=True)
  (log_var_net): Linear(in_features=16, out_features=16, bias=True)
  (decoder): Linear(in_features=16, out_features=12100, bias=True)
)"
6a4e5b38-0d14-4e52-8874-ca7a604a4522,64,16,0.005,4,0.7254742723492724,1.0,,,,,,,"GAT_VGAE(
  (gat1): GATConv(1000, 64, heads=4)
  (gat2): GATConv(256, 16, heads=1)
  (mu_net): Linear(in_features=16, out_features=16, bias=True)
  (log_var_net): Linear(in_features=16, out_features=16, bias=True)
  (decoder): Linear(in_features=16, out_features=12100, bias=True)
)"
5fce148c-74c3-489d-a1d4-71f5322a7b14,64,16,0.0001,4,0.4954879158004158,0.3210177762286511,,,,,,,"GAT_VGAE(
  (gat1): GATConv(1000, 64, heads=4)
  (gat2): GATConv(256, 16, heads=1)
  (mu_net): Linear(in_features=16, out_features=16, bias=True)
  (log_var_net): Linear(in_features=16, out_features=16, bias=True)
  (decoder): Linear(in_features=16, out_features=12100, bias=True)
)"
8a99e06b-faad-4028-8ec8-58fcc5b4f24a,64,16,0.0005,4,0.5913818866943867,0.4869078552868279,,,,,,,"GAT_VGAE(
  (gat1): GATConv(1000, 64, heads=4)
  (gat2): GATConv(256, 16, heads=1)
  (mu_net): Linear(in_features=16, out_features=16, bias=True)
  (log_var_net): Linear(in_features=16, out_features=16, bias=True)
  (decoder): Linear(in_features=16, out_features=12100, bias=True)
)"
ae53c751-9915-4449-8888-f5a8ea6445fd,64,16,0.001,4,0.6906672297297297,0.7802781289506954,,,,,,,"GAT_VGAE(
  (gat1): GATConv(1000, 64, heads=4)
  (gat2): GATConv(256, 16, heads=1)
  (mu_net): Linear(in_features=16, out_features=16, bias=True)
  (log_var_net): Linear(in_features=16, out_features=16, bias=True)
  (decoder): Linear(in_features=16, out_features=12100, bias=True)
)"
86226225-af4d-448d-b4de-cd3f5020f8d0,64,16,0.005,4,0.7254742723492724,1.0,,,,,,,"GAT_VGAE(
  (gat1): GATConv(1000, 64, heads=4)
  (gat2): GATConv(256, 16, heads=1)
  (mu_net): Linear(in_features=16, out_features=16, bias=True)
  (log_var_net): Linear(in_features=16, out_features=16, bias=True)
  (decoder): Linear(in_features=16, out_features=12100, bias=True)
)"
91489631-4654-41e6-883f-f24f8acf80fa,64,16,0.0001,4,0.5364669958419959,0.3276807125727989,,,,,,,"GAT_VGAE(
  (gat1): GATConv(1000, 64, heads=4)
  (gat2): GATConv(256, 16, heads=1)
  (mu_net): Linear(in_features=16, out_features=16, bias=True)
  (log_var_net): Linear(in_features=16, out_features=16, bias=True)
  (decoder): Linear(in_features=16, out_features=12100, bias=True)
)"
13d244a2-1bc3-42c7-a991-069da20d82cf,64,16,0.0005,4,0.5819614085239087,0.4658094681472823,,,,,,,"GAT_VGAE(
  (gat1): GATConv(1000, 64, heads=4)
  (gat2): GATConv(256, 16, heads=1)
  (mu_net): Linear(in_features=16, out_features=16, bias=True)
  (log_var_net): Linear(in_features=16, out_features=16, bias=True)
  (decoder): Linear(in_features=16, out_features=12100, bias=True)
)"
1953de31-eebb-4c65-bcc2-b17cb534cb02,64,16,0.001,4,0.6796777546777547,0.779979674796748,,,,,,,"GAT_VGAE(
  (gat1): GATConv(1000, 64, heads=4)
  (gat2): GATConv(256, 16, heads=1)
  (mu_net): Linear(in_features=16, out_features=16, bias=True)
  (log_var_net): Linear(in_features=16, out_features=16, bias=True)
  (decoder): Linear(in_features=16, out_features=12100, bias=True)
)"
a40b1915-2d82-4a32-8532-f239e421cf25,64,16,0.005,4,0.7254742723492724,1.0,,,,,,,"GAT_VGAE(
  (gat1): GATConv(1000, 64, heads=4)
  (gat2): GATConv(256, 16, heads=1)
  (mu_net): Linear(in_features=16, out_features=16, bias=True)
  (log_var_net): Linear(in_features=16, out_features=16, bias=True)
  (decoder): Linear(in_features=16, out_features=12100, bias=True)
)"
2ecee4e4-cada-49f5-96f8-9c690124ccdc,64,16,0.0001,4,0.5319256756756757,0.3117477538565859,,,,,,,"GAT_VGAE(
  (gat1): GATConv(1000, 64, heads=4)
  (gat2): GATConv(256, 16, heads=1)
  (mu_net): Linear(in_features=16, out_features=16, bias=True)
  (log_var_net): Linear(in_features=16, out_features=16, bias=True)
  (decoder): Linear(in_features=16, out_features=12100, bias=True)
)"
3754bde6-3b5a-40ec-a15b-75bf36b5f6d6,64,16,0.0005,4,0.6091508575883576,0.4855338223308883,,,,,,,"GAT_VGAE(
  (gat1): GATConv(1000, 64, heads=4)
  (gat2): GATConv(256, 16, heads=1)
  (mu_net): Linear(in_features=16, out_features=16, bias=True)
  (log_var_net): Linear(in_features=16, out_features=16, bias=True)
  (decoder): Linear(in_features=16, out_features=12100, bias=True)
)"
d2fb5837-1fee-416a-b218-ffebe1c07a61,64,16,0.001,4,0.6873245841995842,0.8131496881496881,,,,,,,"GAT_VGAE(
  (gat1): GATConv(1000, 64, heads=4)
  (gat2): GATConv(256, 16, heads=1)
  (mu_net): Linear(in_features=16, out_features=16, bias=True)
  (log_var_net): Linear(in_features=16, out_features=16, bias=True)
  (decoder): Linear(in_features=16, out_features=12100, bias=True)
)"
78087fc5-81ab-4251-8927-5d08f0da0d59,64,16,0.005,4,0.7254742723492724,1.0,,,,,,,"GAT_VGAE(
  (gat1): GATConv(1000, 64, heads=4)
  (gat2): GATConv(256, 16, heads=1)
  (mu_net): Linear(in_features=16, out_features=16, bias=True)
  (log_var_net): Linear(in_features=16, out_features=16, bias=True)
  (decoder): Linear(in_features=16, out_features=12100, bias=True)
)"
b03d232c-5a12-4c78-b09d-07eec0feba05,64,16,0.0001,4,0.5266599532224532,0.3248143671213953,,,,,,,"GAT_VGAE(
  (gat1): GATConv(1000, 64, heads=4)
  (gat2): GATConv(256, 16, heads=1)
  (mu_net): Linear(in_features=16, out_features=16, bias=True)
  (log_var_net): Linear(in_features=16, out_features=16, bias=True)
  (decoder): Linear(in_features=16, out_features=12100, bias=True)
)"
e03041bc-7831-4d8a-9eb2-f81e4809dc61,64,16,0.0005,4,0.5826338357588358,0.48128980891719747,,,,,,,"GAT_VGAE(
  (gat1): GATConv(1000, 64, heads=4)
  (gat2): GATConv(256, 16, heads=1)
  (mu_net): Linear(in_features=16, out_features=16, bias=True)
  (log_var_net): Linear(in_features=16, out_features=16, bias=True)
  (decoder): Linear(in_features=16, out_features=12100, bias=True)
)"
8c940a8f-39e8-4386-9c04-7494f1cc5b92,64,16,0.001,4,0.6722420738045738,0.04329435182881314,0.6692307692307692,0.08132741294695023,260,4019,133,[0 0 0 ... 0 0 0],"GAT_VGAE(
  (gat1): GATConv(1000, 64, heads=4)
  (gat2): GATConv(256, 16, heads=1)
  (mu_net): Linear(in_features=16, out_features=16, bias=True)
  (log_var_net): Linear(in_features=16, out_features=16, bias=True)
  (decoder): Linear(in_features=16, out_features=12100, bias=True)
)"
2c993587-f82c-4653-8da1-c705e0bf6952,64,16,0.005,4,0.7254742723492724,0.05513196480938416,0.7230769230769231,0.10245231607629428,260,3410,131,[0 0 0 ... 0 0 0],"GAT_VGAE(
  (gat1): GATConv(1000, 64, heads=4)
  (gat2): GATConv(256, 16, heads=1)
  (mu_net): Linear(in_features=16, out_features=16, bias=True)
  (log_var_net): Linear(in_features=16, out_features=16, bias=True)
  (decoder): Linear(in_features=16, out_features=12100, bias=True)
)"
6d8d843b-fdb0-426e-9840-b5f27bdc1ef0,64,16,0.0001,4,0.5304216476091477,0.024158757549611734,0.5384615384615384,0.046242774566473986,260,5795,56,[0 0 0 ... 0 0 0],"GAT_VGAE(
  (gat1): GATConv(1000, 64, heads=4)
  (gat2): GATConv(256, 16, heads=1)
  (mu_net): Linear(in_features=16, out_features=16, bias=True)
  (log_var_net): Linear(in_features=16, out_features=16, bias=True)
  (decoder): Linear(in_features=16, out_features=12100, bias=True)
)"
58c886e3-297c-4be2-b5b7-9da619a12960,64,16,0.0005,4,0.5845341735966736,0.03012653143201446,0.5769230769230769,0.057262836419163965,260,4979,85,[0 0 0 ... 0 0 0],"GAT_VGAE(
  (gat1): GATConv(1000, 64, heads=4)
  (gat2): GATConv(256, 16, heads=1)
  (mu_net): Linear(in_features=16, out_features=16, bias=True)
  (log_var_net): Linear(in_features=16, out_features=16, bias=True)
  (decoder): Linear(in_features=16, out_features=12100, bias=True)
)"
96ca6f65-ae40-4906-a087-0aef05bb90c3,64,16,0.001,4,0.6907549376299376,0.045477014335145824,0.7076923076923077,0.08546214584300975,260,4046,136,[0 0 0 ... 0 0 0],"GAT_VGAE(
  (gat1): GATConv(1000, 64, heads=4)
  (gat2): GATConv(256, 16, heads=1)
  (mu_net): Linear(in_features=16, out_features=16, bias=True)
  (log_var_net): Linear(in_features=16, out_features=16, bias=True)
  (decoder): Linear(in_features=16, out_features=12100, bias=True)
)"
84358c3a-25c7-4c92-b647-f28d50a2607f,64,16,0.005,4,0.7254742723492724,0.05513196480938416,0.7230769230769231,0.10245231607629428,260,3410,131,[0 0 1 ... 0 0 0],"GAT_VGAE(
  (gat1): GATConv(1000, 64, heads=4)
  (gat2): GATConv(256, 16, heads=1)
  (mu_net): Linear(in_features=16, out_features=16, bias=True)
  (log_var_net): Linear(in_features=16, out_features=16, bias=True)
  (decoder): Linear(in_features=16, out_features=12100, bias=True)
)"
5da65efd-e683-4012-888c-fac573438833,64,16,0.0001,4,0.519052104989605,0.02316335350043215,0.5153846153846153,0.044334160463192725,260,5785,54,[0 0 0 ... 0 0 0],"GAT_VGAE(
  (gat1): GATConv(1000, 64, heads=4)
  (gat2): GATConv(256, 16, heads=1)
  (mu_net): Linear(in_features=16, out_features=16, bias=True)
  (log_var_net): Linear(in_features=16, out_features=16, bias=True)
  (decoder): Linear(in_features=16, out_features=12100, bias=True)
)"
3ed48a41-30c4-4648-a66c-041383fe51b6,64,16,0.0005,4,0.5915345634095635,0.030550690795874684,0.6038461538461538,0.058158918318207076,260,5139,98,[0 0 0 ... 0 0 0],"GAT_VGAE(
  (gat1): GATConv(1000, 64, heads=4)
  (gat2): GATConv(256, 16, heads=1)
  (mu_net): Linear(in_features=16, out_features=16, bias=True)
  (log_var_net): Linear(in_features=16, out_features=16, bias=True)
  (decoder): Linear(in_features=16, out_features=12100, bias=True)
)"
674b21c4-c002-4365-8506-a3c76c7df4ef,64,16,0.001,4,0.6828709719334718,0.04475,0.6884615384615385,0.084037558685446,260,4000,138,[0 0 0 ... 0 0 0],"GAT_VGAE(
  (gat1): GATConv(1000, 64, heads=4)
  (gat2): GATConv(256, 16, heads=1)
  (mu_net): Linear(in_features=16, out_features=16, bias=True)
  (log_var_net): Linear(in_features=16, out_features=16, bias=True)
  (decoder): Linear(in_features=16, out_features=12100, bias=True)
)"
b24819fb-fa19-4e0c-9573-b1761b61dec5,64,16,0.005,4,0.7254742723492724,0.05513196480938416,0.7230769230769231,0.10245231607629428,260,3410,131,[0 0 0 ... 0 0 0],"GAT_VGAE(
  (gat1): GATConv(1000, 64, heads=4)
  (gat2): GATConv(256, 16, heads=1)
  (mu_net): Linear(in_features=16, out_features=16, bias=True)
  (log_var_net): Linear(in_features=16, out_features=16, bias=True)
  (decoder): Linear(in_features=16, out_features=12100, bias=True)
)"
c2eb47cb-88e2-4770-8f9c-d8ec4fd86a08,64,16,0.0001,4,0.5085044178794179,0.022245577158871956,0.48846153846153845,0.0425531914893617,260,5709,60,[1 0 0 ... 0 0 0],"GAT_VGAE(
  (gat1): GATConv(1000, 64, heads=4)
  (gat2): GATConv(256, 16, heads=1)
  (mu_net): Linear(in_features=16, out_features=16, bias=True)
  (log_var_net): Linear(in_features=16, out_features=16, bias=True)
  (decoder): Linear(in_features=16, out_features=12100, bias=True)
)"
86524dc0-c1b4-43a8-9bde-e400ae715e97,64,16,0.0005,4,0.5916385135135136,0.030648330058939095,0.6,0.05831775700934579,260,5090,96,[0 0 0 ... 0 0 0],"GAT_VGAE(
  (gat1): GATConv(1000, 64, heads=4)
  (gat2): GATConv(256, 16, heads=1)
  (mu_net): Linear(in_features=16, out_features=16, bias=True)
  (log_var_net): Linear(in_features=16, out_features=16, bias=True)
  (decoder): Linear(in_features=16, out_features=12100, bias=True)
)"
f26243a4-4ee6-440b-b9a5-b6af970e3d02,64,16,0.001,4,0.687581211018711,0.045743329097839895,0.6923076923076923,0.08581644815256258,260,3935,123,[0 0 0 ... 0 0 0],"GAT_VGAE(
  (gat1): GATConv(1000, 64, heads=4)
  (gat2): GATConv(256, 16, heads=1)
  (mu_net): Linear(in_features=16, out_features=16, bias=True)
  (log_var_net): Linear(in_features=16, out_features=16, bias=True)
  (decoder): Linear(in_features=16, out_features=12100, bias=True)
)"
93db1ead-c4b6-4070-8001-6daedcb482b5,64,16,0.005,4,0.7254742723492724,0.05513196480938416,0.7230769230769231,0.10245231607629428,260,3410,128,[1 0 0 ... 0 0 0],"GAT_VGAE(
  (gat1): GATConv(1000, 64, heads=4)
  (gat2): GATConv(256, 16, heads=1)
  (mu_net): Linear(in_features=16, out_features=16, bias=True)
  (log_var_net): Linear(in_features=16, out_features=16, bias=True)
  (decoder): Linear(in_features=16, out_features=12100, bias=True)
)"
4c2b8953-cf46-4588-b460-1ba3afa21f35,64,16,0.0001,4,0.5072180353430353,0.02212236432768752,0.49230769230769234,0.04234204432682766,260,5786,63,[0 0 0 ... 0 0 0],"GAT_VGAE(
  (gat1): GATConv(1000, 64, heads=4)
  (gat2): GATConv(256, 16, heads=1)
  (mu_net): Linear(in_features=16, out_features=16, bias=True)
  (log_var_net): Linear(in_features=16, out_features=16, bias=True)
  (decoder): Linear(in_features=16, out_features=12100, bias=True)
)"
1510c2fd-73c8-4360-97dd-33923a4c84c2,64,16,0.0005,4,0.5882991164241165,0.030338849487785657,0.5923076923076923,0.05772113943028486,260,5076,104,[0 0 0 ... 0 0 0],"GAT_VGAE(
  (gat1): GATConv(1000, 64, heads=4)
  (gat2): GATConv(256, 16, heads=1)
  (mu_net): Linear(in_features=16, out_features=16, bias=True)
  (log_var_net): Linear(in_features=16, out_features=16, bias=True)
  (decoder): Linear(in_features=16, out_features=12100, bias=True)
)"
10727153-2c20-4aaf-aa19-8ff50b44fc4d,64,16,0.001,4,0.6903716216216216,0.045936395759717315,0.7,0.08621506395073425,260,3962,131,[0 0 0 ... 0 0 0],"GAT_VGAE(
  (gat1): GATConv(1000, 64, heads=4)
  (gat2): GATConv(256, 16, heads=1)
  (mu_net): Linear(in_features=16, out_features=16, bias=True)
  (log_var_net): Linear(in_features=16, out_features=16, bias=True)
  (decoder): Linear(in_features=16, out_features=12100, bias=True)
)"
3c7cdedd-43a3-4979-ad3f-37b532da2eae,64,16,0.005,4,0.7254742723492724,0.05513196480938416,0.7230769230769231,0.10245231607629428,260,3410,125,[0 0 1 ... 0 0 0],"GAT_VGAE(
  (gat1): GATConv(1000, 64, heads=4)
  (gat2): GATConv(256, 16, heads=1)
  (mu_net): Linear(in_features=16, out_features=16, bias=True)
  (log_var_net): Linear(in_features=16, out_features=16, bias=True)
  (decoder): Linear(in_features=16, out_features=12100, bias=True)
)"
17790c7b-d216-4ae7-bea8-22cc7b634dfe,64,16,0.0001,4,0.5062857328482329,0.02204724409448819,0.4846153846153846,0.042175732217573224,260,5715,66,[0 0 0 ... 0 0 0],"GAT_VGAE(
  (gat1): GATConv(1000, 64, heads=4)
  (gat2): GATConv(256, 16, heads=1)
  (mu_net): Linear(in_features=16, out_features=16, bias=True)
  (log_var_net): Linear(in_features=16, out_features=16, bias=True)
  (decoder): Linear(in_features=16, out_features=12100, bias=True)
)"
d6a976ae-c341-4c40-9c90-cfc00baa7480,64,16,0.0005,4,0.5985869282744283,0.03157683024939662,0.6038461538461538,0.060015290519877675,260,4972,95,[0 0 0 ... 0 0 0],"GAT_VGAE(
  (gat1): GATConv(1000, 64, heads=4)
  (gat2): GATConv(256, 16, heads=1)
  (mu_net): Linear(in_features=16, out_features=16, bias=True)
  (log_var_net): Linear(in_features=16, out_features=16, bias=True)
  (decoder): Linear(in_features=16, out_features=12100, bias=True)
)"
bea89896-062b-40ab-a87d-cb20d1d4b0cb,64,16,0.001,4,0.6875389812889813,0.04573170731707317,0.6923076923076923,0.08579599618684461,260,3936,125,[0 0 0 ... 0 0 0],"GAT_VGAE(
  (gat1): GATConv(1000, 64, heads=4)
  (gat2): GATConv(256, 16, heads=1)
  (mu_net): Linear(in_features=16, out_features=16, bias=True)
  (log_var_net): Linear(in_features=16, out_features=16, bias=True)
  (decoder): Linear(in_features=16, out_features=12100, bias=True)
)"
fe9d5b84-0e9e-4556-8467-f90b69fa08ac,64,16,0.005,4,0.7254742723492724,0.05513196480938416,0.7230769230769231,0.10245231607629428,260,3410,132,[0 0 0 ... 0 1 1],"GAT_VGAE(
  (gat1): GATConv(1000, 64, heads=4)
  (gat2): GATConv(256, 16, heads=1)
  (mu_net): Linear(in_features=16, out_features=16, bias=True)
  (log_var_net): Linear(in_features=16, out_features=16, bias=True)
  (decoder): Linear(in_features=16, out_features=12100, bias=True)
)"
88310f2a-0c88-4d36-9f48-4b3bcb5cd060,64,16,0.0001,4,0.5197505197505198,0.023215821152192607,0.5192307692307693,0.044444444444444446,260,5815,64,[0 0 0 ... 0 0 0],"GAT_VGAE(
  (gat1): GATConv(1000, 64, heads=4)
  (gat2): GATConv(256, 16, heads=1)
  (mu_net): Linear(in_features=16, out_features=16, bias=True)
  (log_var_net): Linear(in_features=16, out_features=16, bias=True)
  (decoder): Linear(in_features=16, out_features=12100, bias=True)
)"
7e331451-de50-4279-b701-0d4d28e121ff,64,16,0.0005,4,0.6040767931392932,0.03242461792647666,0.6038461538461538,0.06154449235593885,260,4842,93,[0 0 0 ... 0 0 0],"GAT_VGAE(
  (gat1): GATConv(1000, 64, heads=4)
  (gat2): GATConv(256, 16, heads=1)
  (mu_net): Linear(in_features=16, out_features=16, bias=True)
  (log_var_net): Linear(in_features=16, out_features=16, bias=True)
  (decoder): Linear(in_features=16, out_features=12100, bias=True)
)"
867507cc-930a-40fa-abd4-9ab42a354b36,64,16,0.001,4,0.6925903066528067,0.046258847320525785,0.7038461538461539,0.08681214421252371,260,3956,129,[0 0 0 ... 0 0 0],"GAT_VGAE(
  (gat1): GATConv(1000, 64, heads=4)
  (gat2): GATConv(256, 16, heads=1)
  (mu_net): Linear(in_features=16, out_features=16, bias=True)
  (log_var_net): Linear(in_features=16, out_features=16, bias=True)
  (decoder): Linear(in_features=16, out_features=12100, bias=True)
)"
348d77d2-1639-4b01-b8a5-275292fd7203,64,16,0.005,4,0.7254742723492724,0.05513196480938416,0.7230769230769231,0.10245231607629428,260,3410,136,[0 0 0 ... 0 0 1],"GAT_VGAE(
  (gat1): GATConv(1000, 64, heads=4)
  (gat2): GATConv(256, 16, heads=1)
  (mu_net): Linear(in_features=16, out_features=16, bias=True)
  (log_var_net): Linear(in_features=16, out_features=16, bias=True)
  (decoder): Linear(in_features=16, out_features=12100, bias=True)
)"
59e6b3c5-d882-4ff3-8121-02f8b1c09ce4,64,16,0.0001,4,0.5024428274428275,0.021701687909059592,0.4846153846153846,0.04154302670623145,260,5806,59,[0 0 0 ... 0 0 0],"GAT_VGAE(
  (gat1): GATConv(1000, 64, heads=4)
  (gat2): GATConv(256, 16, heads=1)
  (mu_net): Linear(in_features=16, out_features=16, bias=True)
  (log_var_net): Linear(in_features=16, out_features=16, bias=True)
  (decoder): Linear(in_features=16, out_features=12100, bias=True)
)"
19cc4707-33ef-4312-aee3-11ebb9cd67da,64,16,0.0005,4,0.5770107848232848,0.029370348018507342,0.5615384615384615,0.05582106671764481,260,4971,90,[1 1 0 ... 1 0 0],"GAT_VGAE(
  (gat1): GATConv(1000, 64, heads=4)
  (gat2): GATConv(256, 16, heads=1)
  (mu_net): Linear(in_features=16, out_features=16, bias=True)
  (log_var_net): Linear(in_features=16, out_features=16, bias=True)
  (decoder): Linear(in_features=16, out_features=12100, bias=True)
)"
c57ff8f3-e2db-4724-9796-5aea674fd3cf,64,16,0.001,4,0.6797037422037422,0.04392638036809816,0.6884615384615385,0.0825836216839677,260,4075,125,[0 0 0 ... 0 0 0],"GAT_VGAE(
  (gat1): GATConv(1000, 64, heads=4)
  (gat2): GATConv(256, 16, heads=1)
  (mu_net): Linear(in_features=16, out_features=16, bias=True)
  (log_var_net): Linear(in_features=16, out_features=16, bias=True)
  (decoder): Linear(in_features=16, out_features=12100, bias=True)
)"
506e71ad-e979-4e89-a7dc-155326b29e62,64,16,0.005,4,0.7254742723492724,0.05513196480938416,0.7230769230769231,0.10245231607629428,260,3410,134,[0 0 0 ... 0 0 0],"GAT_VGAE(
  (gat1): GATConv(1000, 64, heads=4)
  (gat2): GATConv(256, 16, heads=1)
  (mu_net): Linear(in_features=16, out_features=16, bias=True)
  (log_var_net): Linear(in_features=16, out_features=16, bias=True)
  (decoder): Linear(in_features=16, out_features=12100, bias=True)
)"
0894dc9a-0318-4d52-873f-e5848fa6c0de,64,16,0.0001,4,0.520172817047817,0.023255813953488372,0.5192307692307693,0.04451772464962902,260,5805,64,[0 0 0 ... 0 0 0],"GAT_VGAE(
  (gat1): GATConv(1000, 64, heads=4)
  (gat2): GATConv(256, 16, heads=1)
  (mu_net): Linear(in_features=16, out_features=16, bias=True)
  (log_var_net): Linear(in_features=16, out_features=16, bias=True)
  (decoder): Linear(in_features=16, out_features=12100, bias=True)
)"
25eecb63-e6ce-4302-8365-c22394a4566d,64,16,0.0005,4,0.6062142671517672,0.03244777935510038,0.6153846153846154,0.061645155076093236,260,4931,103,[0 0 0 ... 0 0 0],"GAT_VGAE(
  (gat1): GATConv(1000, 64, heads=4)
  (gat2): GATConv(256, 16, heads=1)
  (mu_net): Linear(in_features=16, out_features=16, bias=True)
  (log_var_net): Linear(in_features=16, out_features=16, bias=True)
  (decoder): Linear(in_features=16, out_features=12100, bias=True)
)"
d7c9b000-bf3d-4ef7-9eb4-6f4e8679915f,64,16,0.001,4,0.6620354729729729,0.04195630585898709,0.65,0.07882462686567164,260,4028,123,[0 0 0 ... 0 0 0],"GAT_VGAE(
  (gat1): GATConv(1000, 64, heads=4)
  (gat2): GATConv(256, 16, heads=1)
  (mu_net): Linear(in_features=16, out_features=16, bias=True)
  (log_var_net): Linear(in_features=16, out_features=16, bias=True)
  (decoder): Linear(in_features=16, out_features=12100, bias=True)
)"
f1612c27-6164-4351-a028-17b43b40b2ca,64,16,0.005,4,0.7254742723492724,0.05513196480938416,0.7230769230769231,0.10245231607629428,260,3410,135,[0 0 0 ... 1 0 0],"GAT_VGAE(
  (gat1): GATConv(1000, 64, heads=4)
  (gat2): GATConv(256, 16, heads=1)
  (mu_net): Linear(in_features=16, out_features=16, bias=True)
  (log_var_net): Linear(in_features=16, out_features=16, bias=True)
  (decoder): Linear(in_features=16, out_features=12100, bias=True)
)"
9ed7cf4d-8ca9-4563-9faf-0512d5b45cbc,64,16,0.0001,4,0.5312435031185031,0.024262524000698203,0.5346153846153846,0.04641843379529137,260,5729,68,[0 0 1 ... 0 0 0],"GAT_VGAE(
  (gat1): GATConv(1000, 64, heads=4)
  (gat2): GATConv(256, 16, heads=1)
  (mu_net): Linear(in_features=16, out_features=16, bias=True)
  (log_var_net): Linear(in_features=16, out_features=16, bias=True)
  (decoder): Linear(in_features=16, out_features=12100, bias=True)
)"
65744b82-507b-4142-8922-601ccf0f7cb1,64,16,0.0005,4,0.5999837577962578,0.031597774244833066,0.6115384615384616,0.060090702947845805,260,5032,109,[0 0 0 ... 0 0 0],"GAT_VGAE(
  (gat1): GATConv(1000, 64, heads=4)
  (gat2): GATConv(256, 16, heads=1)
  (mu_net): Linear(in_features=16, out_features=16, bias=True)
  (log_var_net): Linear(in_features=16, out_features=16, bias=True)
  (decoder): Linear(in_features=16, out_features=12100, bias=True)
)"
acea2f16-0327-451c-9c22-c1a3a6bd8449,64,16,0.001,4,0.6917619542619543,0.04692387904066736,0.6923076923076923,0.087890625,260,3836,139,[0 0 0 ... 0 0 0],"GAT_VGAE(
  (gat1): GATConv(1000, 64, heads=4)
  (gat2): GATConv(256, 16, heads=1)
  (mu_net): Linear(in_features=16, out_features=16, bias=True)
  (log_var_net): Linear(in_features=16, out_features=16, bias=True)
  (decoder): Linear(in_features=16, out_features=12100, bias=True)
)"
a928d8c4-2c8a-47f4-b35f-1e04c4753c59,64,16,0.005,4,0.7254742723492724,0.05513196480938416,0.7230769230769231,0.10245231607629428,260,3410,124,[0 0 0 ... 0 1 0],"GAT_VGAE(
  (gat1): GATConv(1000, 64, heads=4)
  (gat2): GATConv(256, 16, heads=1)
  (mu_net): Linear(in_features=16, out_features=16, bias=True)
  (log_var_net): Linear(in_features=16, out_features=16, bias=True)
  (decoder): Linear(in_features=16, out_features=12100, bias=True)
)"
f4bd8099-72d5-48cd-8360-d1f1bf893a1e,64,16,0.0001,4,0.5238695426195425,0.02359472588480222,0.5230769230769231,0.0451527224435591,260,5764,64,[0 0 0 ... 0 0 0],"GAT_VGAE(
  (gat1): GATConv(1000, 64, heads=4)
  (gat2): GATConv(256, 16, heads=1)
  (mu_net): Linear(in_features=16, out_features=16, bias=True)
  (log_var_net): Linear(in_features=16, out_features=16, bias=True)
  (decoder): Linear(in_features=16, out_features=12100, bias=True)
)"
502fc991-1fe4-4003-b09b-348d6f44a572,64,16,0.0005,4,0.575574974012474,0.029170829170829173,0.5615384615384615,0.05546058879392213,260,5005,90,[0 0 0 ... 0 0 0],"GAT_VGAE(
  (gat1): GATConv(1000, 64, heads=4)
  (gat2): GATConv(256, 16, heads=1)
  (mu_net): Linear(in_features=16, out_features=16, bias=True)
  (log_var_net): Linear(in_features=16, out_features=16, bias=True)
  (decoder): Linear(in_features=16, out_features=12100, bias=True)
)"
13ee52c3-4cfd-4251-862f-f92438f2d1fd,64,16,0.001,4,0.6608108108108108,0.041656396351984225,0.65,0.07829511234653695,260,4057,126,[0 0 0 ... 0 0 0],"GAT_VGAE(
  (gat1): GATConv(1000, 64, heads=4)
  (gat2): GATConv(256, 16, heads=1)
  (mu_net): Linear(in_features=16, out_features=16, bias=True)
  (log_var_net): Linear(in_features=16, out_features=16, bias=True)
  (decoder): Linear(in_features=16, out_features=12100, bias=True)
)"
9b157f64-fffc-4696-8bcf-27e5c7cb0b2a,64,16,0.005,4,0.7254742723492724,0.05513196480938416,0.7230769230769231,0.10245231607629428,260,3410,126,[0 0 0 ... 0 0 0],"GAT_VGAE(
  (gat1): GATConv(1000, 64, heads=4)
  (gat2): GATConv(256, 16, heads=1)
  (mu_net): Linear(in_features=16, out_features=16, bias=True)
  (log_var_net): Linear(in_features=16, out_features=16, bias=True)
  (decoder): Linear(in_features=16, out_features=12100, bias=True)
)"
9b2f1bb3-ef88-4b9b-bd2a-12a01dc8cd07,64,16,0.0001,4,0.5345406704781704,0.024547353760445683,0.5423076923076923,0.04696868754163891,260,5744,65,[0 0 0 ... 0 0 0],"GAT_VGAE(
  (gat1): GATConv(1000, 64, heads=4)
  (gat2): GATConv(256, 16, heads=1)
  (mu_net): Linear(in_features=16, out_features=16, bias=True)
  (log_var_net): Linear(in_features=16, out_features=16, bias=True)
  (decoder): Linear(in_features=16, out_features=12100, bias=True)
)"
ad891987-4fc9-4fd3-91f8-f51b32e8dfc9,64,16,0.0005,4,0.5993275727650728,0.03159368126374725,0.6076923076923076,0.06006462649686371,260,5001,97,[0 0 0 ... 0 0 0],"GAT_VGAE(
  (gat1): GATConv(1000, 64, heads=4)
  (gat2): GATConv(256, 16, heads=1)
  (mu_net): Linear(in_features=16, out_features=16, bias=True)
  (log_var_net): Linear(in_features=16, out_features=16, bias=True)
  (decoder): Linear(in_features=16, out_features=12100, bias=True)
)"
87c7b8e2-1219-4fda-b8c9-f901e4f66077,64,16,0.001,4,0.6861454002079002,0.045351473922902494,0.6923076923076923,0.08512650744856941,260,3969,128,[0 0 0 ... 0 0 0],"GAT_VGAE(
  (gat1): GATConv(1000, 64, heads=4)
  (gat2): GATConv(256, 16, heads=1)
  (mu_net): Linear(in_features=16, out_features=16, bias=True)
  (log_var_net): Linear(in_features=16, out_features=16, bias=True)
  (decoder): Linear(in_features=16, out_features=12100, bias=True)
)"
6feec9e5-c026-44d1-93ae-f22f6f06babc,64,16,0.005,4,0.7254742723492724,0.05513196480938416,0.7230769230769231,0.10245231607629428,260,3410,139,[0 0 0 ... 1 0 0],"GAT_VGAE(
  (gat1): GATConv(1000, 64, heads=4)
  (gat2): GATConv(256, 16, heads=1)
  (mu_net): Linear(in_features=16, out_features=16, bias=True)
  (log_var_net): Linear(in_features=16, out_features=16, bias=True)
  (decoder): Linear(in_features=16, out_features=12100, bias=True)
)"
ec8eb506-c37d-42d1-a6c0-49de80c738c9,64,16,0.0001,4,0.5217320686070686,0.02343612334801762,0.5115384615384615,0.04481887110362258,260,5675,58,[0 0 0 ... 0 0 0],"GAT_VGAE(
  (gat1): GATConv(1000, 64, heads=4)
  (gat2): GATConv(256, 16, heads=1)
  (mu_net): Linear(in_features=16, out_features=16, bias=True)
  (log_var_net): Linear(in_features=16, out_features=16, bias=True)
  (decoder): Linear(in_features=16, out_features=12100, bias=True)
)"
4c77bc6c-c8e7-4186-8d80-ac4dd66f2764,64,16,0.0005,4,0.60997920997921,0.03261734287987271,0.6307692307692307,0.06202723146747353,260,5028,96,[0 0 1 ... 0 0 0],"GAT_VGAE(
  (gat1): GATConv(1000, 64, heads=4)
  (gat2): GATConv(256, 16, heads=1)
  (mu_net): Linear(in_features=16, out_features=16, bias=True)
  (log_var_net): Linear(in_features=16, out_features=16, bias=True)
  (decoder): Linear(in_features=16, out_features=12100, bias=True)
)"
c9d058b0-5bcb-45e0-bcd1-eaf03c5f8661,64,16,0.001,4,0.6861226611226612,0.04562834565383635,0.6884615384615385,0.08558450872579489,260,3923,144,[0 0 0 ... 0 0 0],"GAT_VGAE(
  (gat1): GATConv(1000, 64, heads=4)
  (gat2): GATConv(256, 16, heads=1)
  (mu_net): Linear(in_features=16, out_features=16, bias=True)
  (log_var_net): Linear(in_features=16, out_features=16, bias=True)
  (decoder): Linear(in_features=16, out_features=12100, bias=True)
)"
21b8e979-87f0-4e48-b47a-79b8f77c9b35,64,16,0.005,4,0.7254742723492724,0.05513196480938416,0.7230769230769231,0.10245231607629428,260,3410,136,[0 0 0 ... 0 0 0],"GAT_VGAE(
  (gat1): GATConv(1000, 64, heads=4)
  (gat2): GATConv(256, 16, heads=1)
  (mu_net): Linear(in_features=16, out_features=16, bias=True)
  (log_var_net): Linear(in_features=16, out_features=16, bias=True)
  (decoder): Linear(in_features=16, out_features=12100, bias=True)
)"
ab5077f9-3d61-4b55-9705-b62ad9a05010,64,16,0.0001,4,0.5216086278586278,0.023392826199965345,0.5192307692307693,0.044768695075443544,260,5771,58,[0 0 0 ... 0 0 0],"GAT_VGAE(
  (gat1): GATConv(1000, 64, heads=4)
  (gat2): GATConv(256, 16, heads=1)
  (mu_net): Linear(in_features=16, out_features=16, bias=True)
  (log_var_net): Linear(in_features=16, out_features=16, bias=True)
  (decoder): Linear(in_features=16, out_features=12100, bias=True)
)"
21ad86e3-a654-4b50-a771-d5a8ec098b77,64,16,0.0005,4,0.5731418918918919,0.029047328864513507,0.55,0.055180397453212425,260,4923,94,[0 0 0 ... 0 0 0],"GAT_VGAE(
  (gat1): GATConv(1000, 64, heads=4)
  (gat2): GATConv(256, 16, heads=1)
  (mu_net): Linear(in_features=16, out_features=16, bias=True)
  (log_var_net): Linear(in_features=16, out_features=16, bias=True)
  (decoder): Linear(in_features=16, out_features=12100, bias=True)
)"
e9f8f1be-1cce-40e6-8871-940cac8e7888,64,16,0.001,4,0.6682464916839918,0.04302969300452944,0.6576923076923077,0.0807746811525744,260,3974,121,[1 0 0 ... 0 0 0],"GAT_VGAE(
  (gat1): GATConv(1000, 64, heads=4)
  (gat2): GATConv(256, 16, heads=1)
  (mu_net): Linear(in_features=16, out_features=16, bias=True)
  (log_var_net): Linear(in_features=16, out_features=16, bias=True)
  (decoder): Linear(in_features=16, out_features=12100, bias=True)
)"
c6bd16bc-1adb-4bf5-bbe6-2ef36d49fddb,64,16,0.005,4,0.7254742723492724,0.05513196480938416,0.7230769230769231,0.10245231607629428,260,3410,127,[0 0 1 ... 0 0 0],"GAT_VGAE(
  (gat1): GATConv(1000, 64, heads=4)
  (gat2): GATConv(256, 16, heads=1)
  (mu_net): Linear(in_features=16, out_features=16, bias=True)
  (log_var_net): Linear(in_features=16, out_features=16, bias=True)
  (decoder): Linear(in_features=16, out_features=12100, bias=True)
)"
aa15ed08-1027-45d4-b8f5-79c059a1c8ff,64,16,0.0001,4,0.5419860966735967,0.025084175084175084,0.573076923076923,0.04806451612903226,260,5940,63,[0 0 0 ... 0 0 0],"GAT_VGAE(
  (gat1): GATConv(1000, 64, heads=4)
  (gat2): GATConv(256, 16, heads=1)
  (mu_net): Linear(in_features=16, out_features=16, bias=True)
  (log_var_net): Linear(in_features=16, out_features=16, bias=True)
  (decoder): Linear(in_features=16, out_features=12100, bias=True)
)"
50e513e3-c8c8-45d7-890b-da0bd8539658,64,16,0.0005,4,0.589946075883576,0.03057375421878102,0.5923076923076923,0.05814612044553521,260,5037,93,[1 0 0 ... 0 0 0],"GAT_VGAE(
  (gat1): GATConv(1000, 64, heads=4)
  (gat2): GATConv(256, 16, heads=1)
  (mu_net): Linear(in_features=16, out_features=16, bias=True)
  (log_var_net): Linear(in_features=16, out_features=16, bias=True)
  (decoder): Linear(in_features=16, out_features=12100, bias=True)
)"
5f355ea5-d3d7-44e6-86b3-a67d2d50cbb2,64,16,0.001,4,0.6734862266112266,0.04387522191224956,0.6653846153846154,0.08232215084463479,260,3943,122,[0 0 0 ... 0 0 0],"GAT_VGAE(
  (gat1): GATConv(1000, 64, heads=4)
  (gat2): GATConv(256, 16, heads=1)
  (mu_net): Linear(in_features=16, out_features=16, bias=True)
  (log_var_net): Linear(in_features=16, out_features=16, bias=True)
  (decoder): Linear(in_features=16, out_features=12100, bias=True)
)"
ecd452f3-40c3-4807-8e1c-5a456edeaed5,64,16,0.005,4,0.7254742723492724,0.05513196480938416,0.7230769230769231,0.10245231607629428,260,3410,137,[0 0 0 ... 1 0 0],"GAT_VGAE(
  (gat1): GATConv(1000, 64, heads=4)
  (gat2): GATConv(256, 16, heads=1)
  (mu_net): Linear(in_features=16, out_features=16, bias=True)
  (log_var_net): Linear(in_features=16, out_features=16, bias=True)
  (decoder): Linear(in_features=16, out_features=12100, bias=True)
)"
f893b6c0-3d77-46d5-8ad8-08c4ac2c9b23,64,16,0.0001,4,0.523466735966736,0.02357255107386066,0.5192307692307693,0.045097711708702186,260,5727,68,[0 0 0 ... 0 0 0],"GAT_VGAE(
  (gat1): GATConv(1000, 64, heads=4)
  (gat2): GATConv(256, 16, heads=1)
  (mu_net): Linear(in_features=16, out_features=16, bias=True)
  (log_var_net): Linear(in_features=16, out_features=16, bias=True)
  (decoder): Linear(in_features=16, out_features=12100, bias=True)
)"
d1469450-1725-4e4f-8461-137ed840ad39,64,16,0.0005,4,0.5809219074844074,0.0296931048226385,0.573076923076923,0.05646078059871163,260,5018,77,[0 0 0 ... 0 0 0],"GAT_VGAE(
  (gat1): GATConv(1000, 64, heads=4)
  (gat2): GATConv(256, 16, heads=1)
  (mu_net): Linear(in_features=16, out_features=16, bias=True)
  (log_var_net): Linear(in_features=16, out_features=16, bias=True)
  (decoder): Linear(in_features=16, out_features=12100, bias=True)
)"
37ea139c-6e89-4903-bd4e-0533c4d1448d,32,8,0.001,2,0.5526734667359667,0.43033816425120774,0.5307692307692308,0.05078196872125115,260,5175,79,[1 0 1 ... 0 0 0],"GAT_VGAE(
  (gat1): GATConv(1000, 32, heads=2)
  (gat2): GATConv(64, 8, heads=1)
  (mu_net): Linear(in_features=8, out_features=8, bias=True)
  (log_var_net): Linear(in_features=8, out_features=8, bias=True)
  (decoder): Linear(in_features=8, out_features=12100, bias=True)
)"
1cbd0ab2-c05f-4b7f-b012-23806ce92e14,64,16,0.001,4,0.5200503754156134,0.004632991911046555,0.13993948562783662,0.008969044675538749,1322,39931,324,[0 0 0 ... 0 0 0],"GAT_VGAE(
  (gat1): GATConv(889, 64, heads=4)
  (gat2): GATConv(256, 16, heads=1)
  (mu_net): Linear(in_features=16, out_features=16, bias=True)
  (log_var_net): Linear(in_features=16, out_features=16, bias=True)
  (decoder): Linear(in_features=16, out_features=399424, bias=True)
)"
72564917-662f-4ee8-a038-5d8bf05d0a42,64,16,0.005,4,0.527702222385613,0.051655629139072845,0.059001512859304085,0.05508474576271186,1322,1510,317,[0 0 0 ... 0 0 0],"GAT_VGAE(
  (gat1): GATConv(889, 64, heads=4)
  (gat2): GATConv(256, 16, heads=1)
  (mu_net): Linear(in_features=16, out_features=16, bias=True)
  (log_var_net): Linear(in_features=16, out_features=16, bias=True)
  (decoder): Linear(in_features=16, out_features=399424, bias=True)
)"
9e520693-273e-4d94-b70a-b389de0a8b79,64,16,0.0001,4,0.5152854340745475,0.003534317441912322,0.4795763993948563,0.007016922515024404,1322,179384,282,[0 0 0 ... 0 0 0],"GAT_VGAE(
  (gat1): GATConv(889, 64, heads=4)
  (gat2): GATConv(256, 16, heads=1)
  (mu_net): Linear(in_features=16, out_features=16, bias=True)
  (log_var_net): Linear(in_features=16, out_features=16, bias=True)
  (decoder): Linear(in_features=16, out_features=399424, bias=True)
)"
c103c994-99fc-467f-8d8f-5c6973417c69,64,16,0.0005,4,0.5127320664541145,0.0035963848217184058,0.3184568835098336,0.007112447628057845,1322,117062,310,[0 0 0 ... 0 0 0],"GAT_VGAE(
  (gat1): GATConv(889, 64, heads=4)
  (gat2): GATConv(256, 16, heads=1)
  (mu_net): Linear(in_features=16, out_features=16, bias=True)
  (log_var_net): Linear(in_features=16, out_features=16, bias=True)
  (decoder): Linear(in_features=16, out_features=399424, bias=True)
)"
66426cdc-60ab-4a83-acb5-35b6e0de406f,64,16,0.001,4,0.5252446231042546,0.005093014528494076,0.1437216338880484,0.009837423630527078,1322,37306,359,[0 0 0 ... 0 0 0],"GAT_VGAE(
  (gat1): GATConv(889, 64, heads=4)
  (gat2): GATConv(256, 16, heads=1)
  (mu_net): Linear(in_features=16, out_features=16, bias=True)
  (log_var_net): Linear(in_features=16, out_features=16, bias=True)
  (decoder): Linear(in_features=16, out_features=399424, bias=True)
)"
0f58b7c3-9f40-4e6f-81d8-72c003dfc8bd,64,16,0.005,4,0.527702222385613,0.051655629139072845,0.059001512859304085,0.05508474576271186,1322,1510,311,[0 0 0 ... 0 0 0],"GAT_VGAE(
  (gat1): GATConv(889, 64, heads=4)
  (gat2): GATConv(256, 16, heads=1)
  (mu_net): Linear(in_features=16, out_features=16, bias=True)
  (log_var_net): Linear(in_features=16, out_features=16, bias=True)
  (decoder): Linear(in_features=16, out_features=399424, bias=True)
)"
d51c65ba-7a29-48d4-9a5b-2c4d918c2af0,64,16,0.0001,4,0.5044074621978413,0.003374659880099005,0.4568835098335855,0.0066998330587954725,1322,178981,259,[0 0 0 ... 0 0 0],"GAT_VGAE(
  (gat1): GATConv(889, 64, heads=4)
  (gat2): GATConv(256, 16, heads=1)
  (mu_net): Linear(in_features=16, out_features=16, bias=True)
  (log_var_net): Linear(in_features=16, out_features=16, bias=True)
  (decoder): Linear(in_features=16, out_features=399424, bias=True)
)"
02449bc2-4b55-4ca8-8ef9-c298d51bb3c6,64,16,0.0005,4,0.52800155117272,0.0039154846335697395,0.3608169440242057,0.007746902051223751,1322,121824,312,[0 0 0 ... 0 0 1],"GAT_VGAE(
  (gat1): GATConv(889, 64, heads=4)
  (gat2): GATConv(256, 16, heads=1)
  (mu_net): Linear(in_features=16, out_features=16, bias=True)
  (log_var_net): Linear(in_features=16, out_features=16, bias=True)
  (decoder): Linear(in_features=16, out_features=399424, bias=True)
)"
42a3c30d-2faf-4c0d-b1fa-ab5fcc59c843,32,8,0.001,2,0.5,0.5007012166433218,0.10269253810823405,0.8657407407407407,0.18360606962213627,9050,120184,1789,[0 0 1 ... 0 0 0],"GAT_VGAE(
  (gat1): GATConv(758, 32, heads=2)
  (gat2): GATConv(64, 8, heads=1)
  (mu_net): Linear(in_features=8, out_features=8, bias=True)
  (log_var_net): Linear(in_features=8, out_features=8, bias=True)
  (decoder): Linear(in_features=8, out_features=828100, bias=True)
)"
5f084d86-b66c-42ed-b3cc-e46d10c11d14,32,8,0.001,2,1.0,0.5016953983543122,0.05965546178063082,0.7828984287317621,0.11086333543583962,9050,187091,1863,[0 0 0 ... 0 0 0],"GAT_VGAE(
  (gat1): GATConv(758, 32, heads=2)
  (gat2): GATConv(64, 8, heads=1)
  (mu_net): Linear(in_features=8, out_features=8, bias=True)
  (log_var_net): Linear(in_features=8, out_features=8, bias=True)
  (decoder): Linear(in_features=8, out_features=828100, bias=True)
)"
57e4d808-756d-4223-9ee2-c14f4fd4ab11,32,8,0.001,2,0.5,0.6231451403326403,0.6161821050259184,0.8017595307917889,0.6968268127946986,260,4437,115,[0 0 0 ... 0 0 0],"GAT_VGAE(
  (gat1): GATConv(1000, 32, heads=2)
  (gat2): GATConv(64, 8, heads=1)
  (mu_net): Linear(in_features=8, out_features=8, bias=True)
  (log_var_net): Linear(in_features=8, out_features=8, bias=True)
  (decoder): Linear(in_features=8, out_features=12100, bias=True)
)"
185a8d97-0f46-4fb8-bca4-ddcf52ea8c8d,32,8,0.001,2,1.0,0.6248018451143451,0.5597605302544366,0.7677419354838709,0.6474588846296525,260,4677,114,[1 0 0 ... 0 0 0],"GAT_VGAE(
  (gat1): GATConv(1000, 32, heads=2)
  (gat2): GATConv(64, 8, heads=1)
  (mu_net): Linear(in_features=8, out_features=8, bias=True)
  (log_var_net): Linear(in_features=8, out_features=8, bias=True)
  (decoder): Linear(in_features=8, out_features=12100, bias=True)
)"
592363a3-6644-433e-bb6c-411b87389ddc,32,8,0.001,2,1.5,0.6185226091476091,0.5706509906379272,0.7686217008797654,0.65500437335999,260,4593,121,[0 0 0 ... 0 0 0],"GAT_VGAE(
  (gat1): GATConv(1000, 32, heads=2)
  (gat2): GATConv(64, 8, heads=1)
  (mu_net): Linear(in_features=8, out_features=8, bias=True)
  (log_var_net): Linear(in_features=8, out_features=8, bias=True)
  (decoder): Linear(in_features=8, out_features=12100, bias=True)
)"
a7f80698-d06e-45cd-885f-ed1c52ae6b7b,32,8,0.001,2,2.0,0.6148453742203742,0.5860039241334205,0.7882697947214077,0.6722520945354508,260,4587,110,[0 0 0 ... 0 0 0],"GAT_VGAE(
  (gat1): GATConv(1000, 32, heads=2)
  (gat2): GATConv(64, 8, heads=1)
  (mu_net): Linear(in_features=8, out_features=8, bias=True)
  (log_var_net): Linear(in_features=8, out_features=8, bias=True)
  (decoder): Linear(in_features=8, out_features=12100, bias=True)
)"
9cd73492-effc-48e2-8fd9-2dde3ecb9412,32,8,0.001,4,0.5,0.6363922817047817,0.6294765840220385,0.8041055718475073,0.7061550347669328,260,4356,113,[0 0 0 ... 0 0 0],"GAT_VGAE(
  (gat1): GATConv(1000, 32, heads=4)
  (gat2): GATConv(128, 8, heads=1)
  (mu_net): Linear(in_features=8, out_features=8, bias=True)
  (log_var_net): Linear(in_features=8, out_features=8, bias=True)
  (decoder): Linear(in_features=8, out_features=12100, bias=True)
)"
6e4e980d-c7a5-48a0-a058-20b556ec9b86,32,8,0.001,4,1.0,0.6163039241164241,0.5655577299412916,0.7627565982404693,0.6495192907978524,260,4599,108,[0 0 0 ... 0 0 0],"GAT_VGAE(
  (gat1): GATConv(1000, 32, heads=4)
  (gat2): GATConv(128, 8, heads=1)
  (mu_net): Linear(in_features=8, out_features=8, bias=True)
  (log_var_net): Linear(in_features=8, out_features=8, bias=True)
  (decoder): Linear(in_features=8, out_features=12100, bias=True)
)"
856e4a9f-bfa3-45f4-8ebc-4ef02a887e3d,32,8,0.001,4,1.5,0.6255327442827443,0.61847752428281,0.8029325513196481,0.6987367615158862,260,4427,106,[1 0 0 ... 0 0 0],"GAT_VGAE(
  (gat1): GATConv(1000, 32, heads=4)
  (gat2): GATConv(128, 8, heads=1)
  (mu_net): Linear(in_features=8, out_features=8, bias=True)
  (log_var_net): Linear(in_features=8, out_features=8, bias=True)
  (decoder): Linear(in_features=8, out_features=12100, bias=True)
)"
5fca262e-8e5a-4d92-908a-2a6824bc484a,32,8,0.001,4,2.0,0.6437662422037422,0.6593381161768109,0.8354838709677419,0.7370327253912818,260,4321,116,[0 0 0 ... 0 0 0],"GAT_VGAE(
  (gat1): GATConv(1000, 32, heads=4)
  (gat2): GATConv(128, 8, heads=1)
  (mu_net): Linear(in_features=8, out_features=8, bias=True)
  (log_var_net): Linear(in_features=8, out_features=8, bias=True)
  (decoder): Linear(in_features=8, out_features=12100, bias=True)
)"
da7fe2fa-6852-4824-98c6-f9d21cc9492a,32,8,0.001,8,0.5,0.6559576403326403,0.6898007033997655,0.8627565982404692,0.7666449511400651,260,4265,117,[0 0 0 ... 0 0 0],"GAT_VGAE(
  (gat1): GATConv(1000, 32, heads=8)
  (gat2): GATConv(256, 8, heads=1)
  (mu_net): Linear(in_features=8, out_features=8, bias=True)
  (log_var_net): Linear(in_features=8, out_features=8, bias=True)
  (decoder): Linear(in_features=8, out_features=12100, bias=True)
)"
df7190bf-8750-4d21-b64d-f68740d20a42,32,8,0.001,8,1.0,0.6210758835758835,0.6025412394115025,0.7926686217008798,0.6846504559270516,260,4486,112,[0 0 0 ... 0 0 0],"GAT_VGAE(
  (gat1): GATConv(1000, 32, heads=8)
  (gat2): GATConv(256, 8, heads=1)
  (mu_net): Linear(in_features=8, out_features=8, bias=True)
  (log_var_net): Linear(in_features=8, out_features=8, bias=True)
  (decoder): Linear(in_features=8, out_features=12100, bias=True)
)"
7334fcb4-5815-4fa2-842b-2f30f7a9eea4,32,8,0.001,8,1.5,0.6007958679833679,0.5598463836142522,0.7695014662756599,0.6481412868963814,260,4687,104,[0 0 0 ... 1 1 0],"GAT_VGAE(
  (gat1): GATConv(1000, 32, heads=8)
  (gat2): GATConv(256, 8, heads=1)
  (mu_net): Linear(in_features=8, out_features=8, bias=True)
  (log_var_net): Linear(in_features=8, out_features=8, bias=True)
  (decoder): Linear(in_features=8, out_features=12100, bias=True)
)"
340fde2c-5457-4771-a090-6816604987de,32,8,0.001,8,2.0,0.6435356029106029,0.6373199176766522,0.8173020527859237,0.7161762816394707,260,4373,111,[0 0 0 ... 0 0 0],"GAT_VGAE(
  (gat1): GATConv(1000, 32, heads=8)
  (gat2): GATConv(256, 8, heads=1)
  (mu_net): Linear(in_features=8, out_features=8, bias=True)
  (log_var_net): Linear(in_features=8, out_features=8, bias=True)
  (decoder): Linear(in_features=8, out_features=12100, bias=True)
)"
8446e55b-9aeb-48b5-86c0-e3a181292f7a,32,8,0.001,16,0.5,0.6347063409563409,0.6023613276899087,0.7929618768328446,0.6846436257754146,260,4489,118,[0 0 0 ... 0 0 0],"GAT_VGAE(
  (gat1): GATConv(1000, 32, heads=16)
  (gat2): GATConv(512, 8, heads=1)
  (mu_net): Linear(in_features=8, out_features=8, bias=True)
  (log_var_net): Linear(in_features=8, out_features=8, bias=True)
  (decoder): Linear(in_features=8, out_features=12100, bias=True)
)"
2687ef94-1d5e-4f33-be97-80d03b17f276,32,8,0.001,16,1.0,0.6114864864864865,0.5699134199134199,0.7721407624633431,0.6557907845579078,260,4620,114,[0 0 0 ... 0 0 0],"GAT_VGAE(
  (gat1): GATConv(1000, 32, heads=16)
  (gat2): GATConv(512, 8, heads=1)
  (mu_net): Linear(in_features=8, out_features=8, bias=True)
  (log_var_net): Linear(in_features=8, out_features=8, bias=True)
  (decoder): Linear(in_features=8, out_features=12100, bias=True)
)"
47ae9c49-58d3-4016-b3de-1b9815f3fb10,32,8,0.001,16,1.5,0.6412551975051974,0.6216399367517507,0.8070381231671554,0.7023095572285313,260,4427,123,[0 0 0 ... 0 0 0],"GAT_VGAE(
  (gat1): GATConv(1000, 32, heads=16)
  (gat2): GATConv(512, 8, heads=1)
  (mu_net): Linear(in_features=8, out_features=8, bias=True)
  (log_var_net): Linear(in_features=8, out_features=8, bias=True)
  (decoder): Linear(in_features=8, out_features=12100, bias=True)
)"
bda5c36e-fdd8-4da5-8ab2-f5f801e205ea,32,8,0.001,16,2.0,0.6162389553014553,0.5808080808080808,0.7756598240469208,0.6642390758412858,260,4554,108,[0 0 0 ... 0 0 0],"GAT_VGAE(
  (gat1): GATConv(1000, 32, heads=16)
  (gat2): GATConv(512, 8, heads=1)
  (mu_net): Linear(in_features=8, out_features=8, bias=True)
  (log_var_net): Linear(in_features=8, out_features=8, bias=True)
  (decoder): Linear(in_features=8, out_features=12100, bias=True)
)"
de1d531a-b5f8-41f4-9643-f75e3ac1beb0,32,16,0.001,2,0.5,0.7111973752598753,0.896032831737346,0.9604105571847508,0.9271054493984431,260,3655,141,[0 0 0 ... 0 0 0],"GAT_VGAE(
  (gat1): GATConv(1000, 32, heads=2)
  (gat2): GATConv(64, 16, heads=1)
  (mu_net): Linear(in_features=16, out_features=16, bias=True)
  (log_var_net): Linear(in_features=16, out_features=16, bias=True)
  (decoder): Linear(in_features=16, out_features=12100, bias=True)
)"
f21955ec-bb8d-4c9e-a11b-65bd83df9fd9,32,16,0.001,2,1.0,0.6832477910602911,0.7811698306824012,0.8929618768328446,0.8333333333333334,260,3898,132,[0 0 0 ... 0 0 1],"GAT_VGAE(
  (gat1): GATConv(1000, 32, heads=2)
  (gat2): GATConv(64, 16, heads=1)
  (mu_net): Linear(in_features=16, out_features=16, bias=True)
  (log_var_net): Linear(in_features=16, out_features=16, bias=True)
  (decoder): Linear(in_features=16, out_features=12100, bias=True)
)"
c6e5991a-d8c2-405e-aecb-56aa10e9b639,32,16,0.001,2,1.5,0.6761109667359667,0.7425620850749939,0.8856304985337243,0.8078106192323125,260,4067,129,[0 0 0 ... 0 0 0],"GAT_VGAE(
  (gat1): GATConv(1000, 32, heads=2)
  (gat2): GATConv(64, 16, heads=1)
  (mu_net): Linear(in_features=16, out_features=16, bias=True)
  (log_var_net): Linear(in_features=16, out_features=16, bias=True)
  (decoder): Linear(in_features=16, out_features=12100, bias=True)
)"
…
9e2dc2e8-30fa-4a67-8b6e-fda58f5c654d,64,64,0.005,4,0.527702222385613,0.051655629139072845,0.059001512859304085,0.05508474576271186,1322,1510,333,[0 0 0 ... 0 0 0],"GAT_VGAE(
  (gat1): GATConv(889, 64, heads=4)
  (gat2): GATConv(256, 64, heads=1)
  (mu_net): Linear(in_features=64, out_features=64, bias=True)
  (log_var_net): Linear(in_features=64, out_features=64, bias=True)
  (decoder): Linear(in_features=64, out_features=399424, bias=True)
)"
8fa94ff5-3d93-4ab6-8696-b1c87784ef8a,64,64,0.005,4,0.527702222385613,0.051655629139072845,0.059001512859304085,0.05508474576271186,1322,1510,327,[0 0 0 ... 0 0 0],"GAT_VGAE(
  (gat1): GATConv(889, 64, heads=4)
  (gat2): GATConv(256, 64, heads=1)
  (mu_net): Linear(in_features=64, out_features=64, bias=True)
  (log_var_net): Linear(in_features=64, out_features=64, bias=True)
  (decoder): Linear(in_features=64, out_features=399424, bias=True)
)"
4e3dca70-5107-44a7-8f32-3c03dd02d07f,64,64,0.005,4,0.527702222385613,0.051655629139072845,0.059001512859304085,0.05508474576271186,1322,1510,304,[0 1 0 ... 0 0 0],"GAT_VGAE(
  (gat1): GATConv(889, 64, heads=4)
  (gat2): GATConv(256, 64, heads=1)
  (mu_net): Linear(in_features=64, out_features=64, bias=True)
  (log_var_net): Linear(in_features=64, out_features=64, bias=True)
  (decoder): Linear(in_features=64, out_features=399424, bias=True)
)"
884350ce-571a-473a-a376-6e29145cd88d,64,64,0.005,4,0.527702222385613,0.051655629139072845,0.059001512859304085,0.05508474576271186,1322,1510,318,[0 0 0 ... 0 0 0],"GAT_VGAE(
  (gat1): GATConv(889, 64, heads=4)
  (gat2): GATConv(256, 64, heads=1)
  (mu_net): Linear(in_features=64, out_features=64, bias=True)
  (log_var_net): Linear(in_features=64, out_features=64, bias=True)
  (decoder): Linear(in_features=64, out_features=399424, bias=True)
)"
f7a79420-b6b4-4db7-839f-0a5a921f6967,64,64,0.005,4,0.527702222385613,0.051655629139072845,0.059001512859304085,0.05508474576271186,1322,1510,306,[0 0 0 ... 0 0 0],"GAT_VGAE(
  (gat1): GATConv(889, 64, heads=4)
  (gat2): GATConv(256, 64, heads=1)
  (mu_net): Linear(in_features=64, out_features=64, bias=True)
  (log_var_net): Linear(in_features=64, out_features=64, bias=True)
  (decoder): Linear(in_features=64, out_features=399424, bias=True)
)"
a90d1fe2-ca3f-4073-8f23-a88d899ae52f,64,64,0.005,4,0.527702222385613,0.051655629139072845,0.059001512859304085,0.05508474576271186,1322,1510,337,[0 0 0 ... 0 0 0],"GAT_VGAE(
  (gat1): GATConv(889, 64, heads=4)
  (gat2): GATConv(256, 64, heads=1)
  (mu_net): Linear(in_features=64, out_features=64, bias=True)
  (log_var_net): Linear(in_features=64, out_features=64, bias=True)
  (decoder): Linear(in_features=64, out_features=399424, bias=True)
)"
2003d31d-16eb-45ed-b48e-bd18db5af908,64,16,0.005,4,0.527702222385613,0.051655629139072845,0.059001512859304085,0.05508474576271186,1322,1510,350,[0 0 0 ... 0 0 0],"GAT_VGAE(
  (gat1): GATConv(889, 64, heads=4)
  (gat2): GATConv(256, 16, heads=1)
  (mu_net): Linear(in_features=16, out_features=16, bias=True)
  (log_var_net): Linear(in_features=16, out_features=16, bias=True)
  (decoder): Linear(in_features=16, out_features=399424, bias=True)
)"
110b0a31-df50-4970-a3da-2a7695936a55,64,16,0.005,4,0.527702222385613,0.051655629139072845,0.059001512859304085,0.05508474576271186,1322,1510,318,[0 0 0 ... 0 0 0],"GAT_VGAE(
  (gat1): GATConv(889, 64, heads=4)
  (gat2): GATConv(256, 16, heads=1)
  (mu_net): Linear(in_features=16, out_features=16, bias=True)
  (log_var_net): Linear(in_features=16, out_features=16, bias=True)
  (decoder): Linear(in_features=16, out_features=399424, bias=True)
)"
318802b3-a4e7-4a5f-99fe-446a512cb7dd,64,16,0.005,4,0.527702222385613,0.051655629139072845,0.059001512859304085,0.05508474576271186,1322,1510,321,[0 0 0 ... 0 0 0],"GAT_VGAE(
  (gat1): GATConv(889, 64, heads=4)
  (gat2): GATConv(256, 16, heads=1)
  (mu_net): Linear(in_features=16, out_features=16, bias=True)
  (log_var_net): Linear(in_features=16, out_features=16, bias=True)
  (decoder): Linear(in_features=16, out_features=399424, bias=True)
)"
895102d8-31d4-4cee-842a-481e2bb4e67e,64,16,0.005,4,0.527702222385613,0.051655629139072845,0.059001512859304085,0.05508474576271186,1322,1510,317,[0 0 0 ... 0 0 0],"GAT_VGAE(
  (gat1): GATConv(889, 64, heads=4)
  (gat2): GATConv(256, 16, heads=1)
  (mu_net): Linear(in_features=16, out_features=16, bias=True)
  (log_var_net): Linear(in_features=16, out_features=16, bias=True)
  (decoder): Linear(in_features=16, out_features=399424, bias=True)
)"
ae7a3f52-d9b1-48eb-a773-e3cb423a9a09,64,64,0.005,4,0.527702222385613,0.051655629139072845,0.059001512859304085,0.05508474576271186,1322,1510,321,[0 0 0 ... 0 0 0],"GAT_VGAE(
  (gat1): GATConv(889, 64, heads=4)
  (gat2): GATConv(256, 64, heads=1)
  (mu_net): Linear(in_features=64, out_features=64, bias=True)
  (log_var_net): Linear(in_features=64, out_features=64, bias=True)
  (decoder): Linear(in_features=64, out_features=399424, bias=True)
)"
9a49dfb8-82dc-4be8-bb05-0a646bbfaaa9,64,64,0.005,4,0.527702222385613,0.051655629139072845,0.059001512859304085,0.05508474576271186,1322,1510,329,[0 0 0 ... 0 0 0],"GAT_VGAE(
  (gat1): GATConv(889, 64, heads=4)
  (gat2): GATConv(256, 64, heads=1)
  (mu_net): Linear(in_features=64, out_features=64, bias=True)
  (log_var_net): Linear(in_features=64, out_features=64, bias=True)
  (decoder): Linear(in_features=64, out_features=399424, bias=True)
)"
b0fb340a-f469-48e5-b01d-79a90482a84f,64,64,0.005,4,0.527702222385613,0.051655629139072845,0.059001512859304085,0.05508474576271186,1322,1510,293,[0 0 0 ... 0 0 0],"GAT_VGAE(
  (gat1): GATConv(889, 64, heads=4)
  (gat2): GATConv(256, 64, heads=1)
  (mu_net): Linear(in_features=64, out_features=64, bias=True)
  (log_var_net): Linear(in_features=64, out_features=64, bias=True)
  (decoder): Linear(in_features=64, out_features=399424, bias=True)
)"
4def3201-ab4c-438c-a4f8-69641d624a7c,64,64,0.005,4,0.527702222385613,0.051655629139072845,0.059001512859304085,0.05508474576271186,1322,1510,348,[0 0 0 ... 0 0 0],"GAT_VGAE(
  (gat1): GATConv(889, 64, heads=4)
  (gat2): GATConv(256, 64, heads=1)
  (mu_net): Linear(in_features=64, out_features=64, bias=True)
  (log_var_net): Linear(in_features=64, out_features=64, bias=True)
  (decoder): Linear(in_features=64, out_features=399424, bias=True)
)"
b1502c13-79b3-40b6-895e-f1bd89ac2de5,64,64,0.005,2,0.527702222385613,0.051655629139072845,0.059001512859304085,0.05508474576271186,1322,1510,309,[0 0 0 ... 0 0 0],"GAT_VGAE(
  (gat1): GATConv(889, 64, heads=2)
  (gat2): GATConv(128, 64, heads=1)
  (mu_net): Linear(in_features=64, out_features=64, bias=True)
  (log_var_net): Linear(in_features=64, out_features=64, bias=True)
  (decoder): Linear(in_features=64, out_features=399424, bias=True)
)"
ee93b220-224c-4d7e-a35d-99eec869e13a,64,64,0.005,4,0.527702222385613,0.051655629139072845,0.059001512859304085,0.05508474576271186,1322,1510,330,[0 0 0 ... 0 0 0],"GAT_VGAE(
  (gat1): GATConv(889, 64, heads=4)
  (gat2): GATConv(256, 64, heads=1)
  (mu_net): Linear(in_features=64, out_features=64, bias=True)
  (log_var_net): Linear(in_features=64, out_features=64, bias=True)
  (decoder): Linear(in_features=64, out_features=399424, bias=True)
)"
6a037284-8f26-435c-a780-1cc80daa167a,64,64,0.005,8,0.527702222385613,0.051655629139072845,0.059001512859304085,0.05508474576271186,1322,1510,313,[1 1 0 ... 0 0 0],"GAT_VGAE(
  (gat1): GATConv(889, 64, heads=8)
  (gat2): GATConv(512, 64, heads=1)
  (mu_net): Linear(in_features=64, out_features=64, bias=True)
  (log_var_net): Linear(in_features=64, out_features=64, bias=True)
  (decoder): Linear(in_features=64, out_features=399424, bias=True)
)"
119c8149-246e-48bf-9190-ea8d1f9db74b,64,64,0.005,16,0.527702222385613,0.051655629139072845,0.059001512859304085,0.05508474576271186,1322,1510,337,[0 0 0 ... 0 0 0],"GAT_VGAE(
  (gat1): GATConv(889, 64, heads=16)
  (gat2): GATConv(1024, 64, heads=1)
  (mu_net): Linear(in_features=64, out_features=64, bias=True)
  (log_var_net): Linear(in_features=64, out_features=64, bias=True)
  (decoder): Linear(in_features=64, out_features=399424, bias=True)
)"
a7fb37b7-e1eb-4e62-9b12-5e7025418d46,64,64,0.005,2,0.7254742723492724,0.05513196480938416,0.7230769230769231,0.10245231607629428,260,3410,129,[0 0 0 ... 1 0 0],"GAT_VGAE(
  (gat1): GATConv(1000, 64, heads=2)
  (gat2): GATConv(128, 64, heads=1)
  (mu_net): Linear(in_features=64, out_features=64, bias=True)
  (log_var_net): Linear(in_features=64, out_features=64, bias=True)
  (decoder): Linear(in_features=64, out_features=12100, bias=True)
)"
f0fe78e4-fc68-4653-b8fc-7023c7fffa6d,64,64,0.005,4,0.7254742723492724,0.05513196480938416,0.7230769230769231,0.10245231607629428,260,3410,132,[0 0 1 ... 0 0 0],"GAT_VGAE(
  (gat1): GATConv(1000, 64, heads=4)
  (gat2): GATConv(256, 64, heads=1)
  (mu_net): Linear(in_features=64, out_features=64, bias=True)
  (log_var_net): Linear(in_features=64, out_features=64, bias=True)
  (decoder): Linear(in_features=64, out_features=12100, bias=True)
)"
00ea1310-631a-4c97-b71d-7a1612dbfbaa,64,64,0.005,8,0.7254742723492724,0.05513196480938416,0.7230769230769231,0.10245231607629428,260,3410,135,[0 0 0 ... 0 0 1],"GAT_VGAE(
  (gat1): GATConv(1000, 64, heads=8)
  (gat2): GATConv(512, 64, heads=1)
  (mu_net): Linear(in_features=64, out_features=64, bias=True)
  (log_var_net): Linear(in_features=64, out_features=64, bias=True)
  (decoder): Linear(in_features=64, out_features=12100, bias=True)
)"
e1e16f86-ddbb-4399-ac41-400dad4d6542,64,64,0.005,16,0.7254742723492724,0.05513196480938416,0.7230769230769231,0.10245231607629428,260,3410,133,[0 0 0 ... 0 0 0],"GAT_VGAE(
  (gat1): GATConv(1000, 64, heads=16)
  (gat2): GATConv(1024, 64, heads=1)
  (mu_net): Linear(in_features=64, out_features=64, bias=True)
  (log_var_net): Linear(in_features=64, out_features=64, bias=True)
  (decoder): Linear(in_features=64, out_features=12100, bias=True)
)"
591288e8-c85b-4a3e-9f9b-da5220c7ffcf,64,64,0.005,2,0.7254742723492724,0.05513196480938416,0.7230769230769231,0.10245231607629428,260,3410,134,[0 0 0 ... 1 0 1],"GAT_VGAE(
  (gat1): GATConv(1000, 64, heads=2)
  (gat2): GATConv(128, 64, heads=1)
  (mu_net): Linear(in_features=64, out_features=64, bias=True)
  (log_var_net): Linear(in_features=64, out_features=64, bias=True)
  (decoder): Linear(in_features=64, out_features=12100, bias=True)
)"
07e74ab5-d391-4f35-8107-3e705ebbb85e,64,64,0.005,4,0.7254742723492724,0.05513196480938416,0.7230769230769231,0.10245231607629428,260,3410,125,[0 0 0 ... 0 0 0],"GAT_VGAE(
  (gat1): GATConv(1000, 64, heads=4)
  (gat2): GATConv(256, 64, heads=1)
  (mu_net): Linear(in_features=64, out_features=64, bias=True)
  (log_var_net): Linear(in_features=64, out_features=64, bias=True)
  (decoder): Linear(in_features=64, out_features=12100, bias=True)
)"
90efaf10-dd46-4c9b-833b-9b529f176ba3,64,64,0.005,8,0.7254742723492724,0.05513196480938416,0.7230769230769231,0.10245231607629428,260,3410,134,[0 0 0 ... 0 0 0],"GAT_VGAE(
  (gat1): GATConv(1000, 64, heads=8)
  (gat2): GATConv(512, 64, heads=1)
  (mu_net): Linear(in_features=64, out_features=64, bias=True)
  (log_var_net): Linear(in_features=64, out_features=64, bias=True)
  (decoder): Linear(in_features=64, out_features=12100, bias=True)
)"
615d255d-5c50-4936-8497-48094d834efa,64,64,0.005,16,0.7254742723492724,0.05513196480938416,0.7230769230769231,0.10245231607629428,260,3410,124,[0 1 0 ... 0 0 0],"GAT_VGAE(
  (gat1): GATConv(1000, 64, heads=16)
  (gat2): GATConv(1024, 64, heads=1)
  (mu_net): Linear(in_features=64, out_features=64, bias=True)
  (log_var_net): Linear(in_features=64, out_features=64, bias=True)
  (decoder): Linear(in_features=64, out_features=12100, bias=True)
)"
d4ce5444-3840-4271-a71e-6f329fa0273d,64,64,0.005,32,0.7254742723492724,0.05513196480938416,0.7230769230769231,0.10245231607629428,260,3410,134,[0 0 0 ... 0 0 0],"GAT_VGAE(
  (gat1): GATConv(1000, 64, heads=32)
  (gat2): GATConv(2048, 64, heads=1)
  (mu_net): Linear(in_features=64, out_features=64, bias=True)
  (log_var_net): Linear(in_features=64, out_features=64, bias=True)
  (decoder): Linear(in_features=64, out_features=12100, bias=True)
)"
dc135aea-30ff-4024-aa8b-9c4487ec3981,64,64,0.005,2,0.7254742723492724,0.05513196480938416,0.7230769230769231,0.10245231607629428,260,3410,131,[0 0 0 ... 0 0 0],"GAT_VGAE(
  (gat1): GATConv(1000, 64, heads=2)
  (gat2): GATConv(128, 64, heads=1)
  (mu_net): Linear(in_features=64, out_features=64, bias=True)
  (log_var_net): Linear(in_features=64, out_features=64, bias=True)
  (decoder): Linear(in_features=64, out_features=12100, bias=True)
)"
c3841a0c-48cd-42b8-b2c1-807684c9cf69,64,64,0.005,4,0.7254742723492724,0.05513196480938416,0.7230769230769231,0.10245231607629428,260,3410,132,[0 0 0 ... 1 0 0],"GAT_VGAE(
  (gat1): GATConv(1000, 64, heads=4)
  (gat2): GATConv(256, 64, heads=1)
  (mu_net): Linear(in_features=64, out_features=64, bias=True)
  (log_var_net): Linear(in_features=64, out_features=64, bias=True)
  (decoder): Linear(in_features=64, out_features=12100, bias=True)
)"
1d0b6acc-5a5a-4ee0-8d05-91b0884a41b1,64,64,0.005,8,0.7254742723492724,0.05513196480938416,0.7230769230769231,0.10245231607629428,260,3410,139,[0 0 1 ... 0 0 0],"GAT_VGAE(
  (gat1): GATConv(1000, 64, heads=8)
  (gat2): GATConv(512, 64, heads=1)
  (mu_net): Linear(in_features=64, out_features=64, bias=True)
  (log_var_net): Linear(in_features=64, out_features=64, bias=True)
  (decoder): Linear(in_features=64, out_features=12100, bias=True)
)"
6c050ea5-45d9-4eb6-bd4e-f079ad04aac7,64,64,0.005,16,0.7254742723492724,0.05513196480938416,0.7230769230769231,0.10245231607629428,260,3410,136,[0 1 0 ... 0 0 0],"GAT_VGAE(
  (gat1): GATConv(1000, 64, heads=16)
  (gat2): GATConv(1024, 64, heads=1)
  (mu_net): Linear(in_features=64, out_features=64, bias=True)
  (log_var_net): Linear(in_features=64, out_features=64, bias=True)
  (decoder): Linear(in_features=64, out_features=12100, bias=True)
)"
03363464-ab7c-4aa0-88b1-42937d322deb,64,64,0.005,32,0.7254742723492724,0.05513196480938416,0.7230769230769231,0.10245231607629428,260,3410,148,[0 0 0 ... 0 0 0],"GAT_VGAE(
  (gat1): GATConv(1000, 64, heads=32)
  (gat2): GATConv(2048, 64, heads=1)
  (mu_net): Linear(in_features=64, out_features=64, bias=True)
  (log_var_net): Linear(in_features=64, out_features=64, bias=True)
  (decoder): Linear(in_features=64, out_features=12100, bias=True)
)"
70dc9bef-c811-4b44-ae18-2d6e34029650,64,64,0.005,2,0.7254742723492724,0.05513196480938416,0.7230769230769231,0.10245231607629428,260,3410,134,[0 0 0 ... 0 0 0],"GAT_VGAE(
  (gat1): GATConv(1000, 64, heads=2)
  (gat2): GATConv(128, 64, heads=1)
  (mu_net): Linear(in_features=64, out_features=64, bias=True)
  (log_var_net): Linear(in_features=64, out_features=64, bias=True)
  (decoder): Linear(in_features=64, out_features=12100, bias=True)
)"
92b83e32-cd6a-47ae-bc3b-5222bc85ac92,64,64,0.005,4,0.7254742723492724,0.05513196480938416,0.7230769230769231,0.10245231607629428,260,3410,141,[0 0 0 ... 0 0 0],"GAT_VGAE(
  (gat1): GATConv(1000, 64, heads=4)
  (gat2): GATConv(256, 64, heads=1)
  (mu_net): Linear(in_features=64, out_features=64, bias=True)
  (log_var_net): Linear(in_features=64, out_features=64, bias=True)
  (decoder): Linear(in_features=64, out_features=12100, bias=True)
)"
6138fa78-0408-4040-8d06-3c6c74c9cc10,64,64,0.005,8,0.7254742723492724,0.05513196480938416,0.7230769230769231,0.10245231607629428,260,3410,126,[0 0 0 ... 0 0 0],"GAT_VGAE(
  (gat1): GATConv(1000, 64, heads=8)
  (gat2): GATConv(512, 64, heads=1)
  (mu_net): Linear(in_features=64, out_features=64, bias=True)
  (log_var_net): Linear(in_features=64, out_features=64, bias=True)
  (decoder): Linear(in_features=64, out_features=12100, bias=True)
)"
2ab33720-783f-4b26-8c8c-49c54560ffe4,64,64,0.005,16,0.7254742723492724,0.05513196480938416,0.7230769230769231,0.10245231607629428,260,3410,133,[0 0 0 ... 0 0 1],"GAT_VGAE(
  (gat1): GATConv(1000, 64, heads=16)
  (gat2): GATConv(1024, 64, heads=1)
  (mu_net): Linear(in_features=64, out_features=64, bias=True)
  (log_var_net): Linear(in_features=64, out_features=64, bias=True)
  (decoder): Linear(in_features=64, out_features=12100, bias=True)
)"
b257ec52-7b1a-48b4-babe-b15c2a72dada,64,64,0.005,32,0.7254742723492724,0.05513196480938416,0.7230769230769231,0.10245231607629428,260,3410,141,[0 0 0 ... 1 0 0],"GAT_VGAE(
  (gat1): GATConv(1000, 64, heads=32)
  (gat2): GATConv(2048, 64, heads=1)
  (mu_net): Linear(in_features=64, out_features=64, bias=True)
  (log_var_net): Linear(in_features=64, out_features=64, bias=True)
  (decoder): Linear(in_features=64, out_features=12100, bias=True)
)"
24a82248-ac4c-4123-8563-3acc25f2d8aa,64,16,0.001,4,0.5148417459453275,0.004363166258180937,0.12254160363086233,0.00842630880861356,1322,37129,302,[0 0 0 ... 0 0 0],"GAT_VGAE(
  (gat1): GATConv(889, 64, heads=4)
  (gat2): GATConv(256, 16, heads=1)
  (mu_net): Linear(in_features=16, out_features=16, bias=True)
  (log_var_net): Linear(in_features=16, out_features=16, bias=True)
  (decoder): Linear(in_features=16, out_features=399424, bias=True)
)"
7597f947-1044-4796-b856-d8b4b3b8a727,64,16,0.005,4,0.527702222385613,0.051655629139072845,0.059001512859304085,0.05508474576271186,1322,1510,304,[0 0 0 ... 0 0 0],"GAT_VGAE(
  (gat1): GATConv(889, 64, heads=4)
  (gat2): GATConv(256, 16, heads=1)
  (mu_net): Linear(in_features=16, out_features=16, bias=True)
  (log_var_net): Linear(in_features=16, out_features=16, bias=True)
  (decoder): Linear(in_features=16, out_features=399424, bias=True)
)"
f1494575-bc6a-4eb4-a26c-4ccb379efb0c,64,16,0.0001,4,0.5045319142964229,0.0033756391375572947,0.4629349470499244,0.006702405528389396,1322,181299,258,[0 0 0 ... 0 0 0],"GAT_VGAE(
  (gat1): GATConv(889, 64, heads=4)
  (gat2): GATConv(256, 16, heads=1)
  (mu_net): Linear(in_features=16, out_features=16, bias=True)
  (log_var_net): Linear(in_features=16, out_features=16, bias=True)
  (decoder): Linear(in_features=16, out_features=399424, bias=True)
)"
024de09e-feb0-4128-9fa0-8f3aef3bfa38,64,16,0.0005,4,0.523697955497778,0.0038417309084714,0.3411497730711044,0.007597900890352688,1322,117395,314,[0 0 0 ... 0 0 0],"GAT_VGAE(
  (gat1): GATConv(889, 64, heads=4)
  (gat2): GATConv(256, 16, heads=1)
  (mu_net): Linear(in_features=16, out_features=16, bias=True)
  (log_var_net): Linear(in_features=16, out_features=16, bias=True)
  (decoder): Linear(in_features=16, out_features=399424, bias=True)
)"
3b489914-ff6e-423b-a975-9e677d3def54,64,16,0.001,4,0.5276456168027123,0.005283836878471752,0.1475037821482602,0.01020221309545609,1322,36905,322,[1 0 1 ... 0 0 0],"GAT_VGAE(
  (gat1): GATConv(889, 64, heads=4)
  (gat2): GATConv(256, 16, heads=1)
  (mu_net): Linear(in_features=16, out_features=16, bias=True)
  (log_var_net): Linear(in_features=16, out_features=16, bias=True)
  (decoder): Linear(in_features=16, out_features=399424, bias=True)
)"
938c3de1-f342-4bd9-8082-72af3270800d,64,16,0.005,4,0.527702222385613,0.051655629139072845,0.059001512859304085,0.05508474576271186,1322,1510,335,[0 0 0 ... 0 0 0],"GAT_VGAE(
  (gat1): GATConv(889, 64, heads=4)
  (gat2): GATConv(256, 16, heads=1)
  (mu_net): Linear(in_features=16, out_features=16, bias=True)
  (log_var_net): Linear(in_features=16, out_features=16, bias=True)
  (decoder): Linear(in_features=16, out_features=399424, bias=True)
)"
d45df329-4922-4801-94b7-84a591ae98bc,64,16,0.0001,4,0.5079886569335795,0.003427276431613555,0.46444780635400906,0.006804341923722662,1322,179151,282,[0 0 0 ... 0 0 0],"GAT_VGAE(
  (gat1): GATConv(889, 64, heads=4)
  (gat2): GATConv(256, 16, heads=1)
  (mu_net): Linear(in_features=16, out_features=16, bias=True)
  (log_var_net): Linear(in_features=16, out_features=16, bias=True)
  (decoder): Linear(in_features=16, out_features=399424, bias=True)
)"
189cc393-8dff-44e8-bf4b-fa285154e8c0,64,16,0.0005,4,0.5109037903004066,0.003555342842735905,0.3146747352496218,0.007031243397645548,1322,117007,288,[0 0 0 ... 0 0 0],"GAT_VGAE(
  (gat1): GATConv(889, 64, heads=4)
  (gat2): GATConv(256, 16, heads=1)
  (mu_net): Linear(in_features=16, out_features=16, bias=True)
  (log_var_net): Linear(in_features=16, out_features=16, bias=True)
  (decoder): Linear(in_features=16, out_features=399424, bias=True)
)"
afc751a1-bb19-42c4-aa05-15c5021328fc,64,8,0.005,4,0.7254742723492724,0.05513196480938416,0.7230769230769231,0.10245231607629428,260,3410,139,[0 1 0 ... 0 0 0],"GAT_VGAE(
  (gat1): GATConv(1000, 64, heads=4)
  (gat2): GATConv(256, 8, heads=1)
  (mu_net): Linear(in_features=8, out_features=8, bias=True)
  (log_var_net): Linear(in_features=8, out_features=8, bias=True)
  (decoder): Linear(in_features=8, out_features=12100, bias=True)
)"
35e2ae11-c5fd-4bcd-8afb-036746042a83,64,16,0.005,4,0.7254742723492724,0.05513196480938416,0.7230769230769231,0.10245231607629428,260,3410,145,[0 1 0 ... 0 0 0],"GAT_VGAE(
  (gat1): GATConv(1000, 64, heads=4)
  (gat2): GATConv(256, 16, heads=1)
  (mu_net): Linear(in_features=16, out_features=16, bias=True)
  (log_var_net): Linear(in_features=16, out_features=16, bias=True)
  (decoder): Linear(in_features=16, out_features=12100, bias=True)
)"
d6145f8a-3d0a-4fea-bdc7-ca2ef1ade4de,64,32,0.005,4,0.7254742723492724,0.05513196480938416,0.7230769230769231,0.10245231607629428,260,3410,133,[0 0 0 ... 0 1 0],"GAT_VGAE(
  (gat1): GATConv(1000, 64, heads=4)
  (gat2): GATConv(256, 32, heads=1)
  (mu_net): Linear(in_features=32, out_features=32, bias=True)
  (log_var_net): Linear(in_features=32, out_features=32, bias=True)
  (decoder): Linear(in_features=32, out_features=12100, bias=True)
)"
19d6d25c-586a-4098-9ab8-9490fd6632d5,64,64,0.005,4,0.7254742723492724,0.05513196480938416,0.7230769230769231,0.10245231607629428,260,3410,141,[0 0 0 ... 1 0 0],"GAT_VGAE(
  (gat1): GATConv(1000, 64, heads=4)
  (gat2): GATConv(256, 64, heads=1)
  (mu_net): Linear(in_features=64, out_features=64, bias=True)
  (log_var_net): Linear(in_features=64, out_features=64, bias=True)
  (decoder): Linear(in_features=64, out_features=12100, bias=True)
)"
fa6dcad1-b36e-4c39-99bb-bf3cfb3075b4,64,64,0.005,4,0.527702222385613,0.051655629139072845,0.059001512859304085,0.05508474576271186,1322,1510,316,[1 0 0 ... 0 0 0],"GAT_VGAE(
  (gat1): GATConv(889, 64, heads=4)
  (gat2): GATConv(256, 64, heads=1)
  (mu_net): Linear(in_features=64, out_features=64, bias=True)
  (log_var_net): Linear(in_features=64, out_features=64, bias=True)
  (decoder): Linear(in_features=64, out_features=399424, bias=True)
)"
22e18cee-d502-40aa-9b1c-047efafc3271,64,64,0.005,4,0.527702222385613,0.051655629139072845,0.059001512859304085,0.05508474576271186,1322,1510,327,[0 0 0 ... 0 0 0],"GAT_VGAE(
  (gat1): GATConv(889, 64, heads=4)
  (gat2): GATConv(256, 64, heads=1)
  (mu_net): Linear(in_features=64, out_features=64, bias=True)
  (log_var_net): Linear(in_features=64, out_features=64, bias=True)
  (decoder): Linear(in_features=64, out_features=399424, bias=True)
)"
64cb71a9-0e1c-47b5-a290-a446c8e5ea9c,64,64,0.005,4,0.527702222385613,0.051655629139072845,0.059001512859304085,0.05508474576271186,1322,1510,328,[0 0 0 ... 0 0 0],"GAT_VGAE(
  (gat1): GATConv(889, 64, heads=4)
  (gat2): GATConv(256, 64, heads=1)
  (mu_net): Linear(in_features=64, out_features=64, bias=True)
  (log_var_net): Linear(in_features=64, out_features=64, bias=True)
  (decoder): Linear(in_features=64, out_features=399424, bias=True)
)"
e88777b8-a828-402e-b7a8-4f81abeb1581,64,64,0.005,4,0.527702222385613,0.051655629139072845,0.059001512859304085,0.05508474576271186,1322,1510,350,[0 0 0 ... 0 0 0],"GAT_VGAE(
  (gat1): GATConv(889, 64, heads=4)
  (gat2): GATConv(256, 64, heads=1)
  (mu_net): Linear(in_features=64, out_features=64, bias=True)
  (log_var_net): Linear(in_features=64, out_features=64, bias=True)
  (decoder): Linear(in_features=64, out_features=399424, bias=True)
)"
6f7fc6c5-7663-4f13-94b3-b34c3d7fcda1,64,64,0.005,2,0.527702222385613,0.051655629139072845,0.059001512859304085,0.05508474576271186,1322,1510,324,[0 0 1 ... 0 0 0],"GAT_VGAE(
  (gat1): GATConv(889, 64, heads=2)
  (gat2): GATConv(128, 64, heads=1)
  (mu_net): Linear(in_features=64, out_features=64, bias=True)
  (log_var_net): Linear(in_features=64, out_features=64, bias=True)
  (decoder): Linear(in_features=64, out_features=399424, bias=True)
)"
62529f20-ab72-40eb-a24d-c4f5764e29da,64,64,0.005,4,0.527702222385613,0.051655629139072845,0.059001512859304085,0.05508474576271186,1322,1510,348,[0 0 0 ... 0 0 0],"GAT_VGAE(
  (gat1): GATConv(889, 64, heads=4)
  (gat2): GATConv(256, 64, heads=1)
  (mu_net): Linear(in_features=64, out_features=64, bias=True)
  (log_var_net): Linear(in_features=64, out_features=64, bias=True)
  (decoder): Linear(in_features=64, out_features=399424, bias=True)
)"
aa6825f7-fdb2-4850-98a3-c6957ffbc783,64,64,0.005,8,0.527702222385613,0.051655629139072845,0.059001512859304085,0.05508474576271186,1322,1510,307,[0 0 0 ... 0 0 0],"GAT_VGAE(
  (gat1): GATConv(889, 64, heads=8)
  (gat2): GATConv(512, 64, heads=1)
  (mu_net): Linear(in_features=64, out_features=64, bias=True)
  (log_var_net): Linear(in_features=64, out_features=64, bias=True)
  (decoder): Linear(in_features=64, out_features=399424, bias=True)
)"
1f2589bd-4e62-46f1-bc7d-f39052a674d3,64,64,0.005,16,0.527702222385613,0.051655629139072845,0.059001512859304085,0.05508474576271186,1322,1510,335,[0 0 0 ... 0 0 0],"GAT_VGAE(
  (gat1): GATConv(889, 64, heads=16)
  (gat2): GATConv(1024, 64, heads=1)
  (mu_net): Linear(in_features=64, out_features=64, bias=True)
  (log_var_net): Linear(in_features=64, out_features=64, bias=True)
  (decoder): Linear(in_features=64, out_features=399424, bias=True)
)"
475b643a-7bb5-491b-8a54-7632d6de0e26,64,64,0.005,32,0.527702222385613,0.051655629139072845,0.059001512859304085,0.05508474576271186,1322,1510,320,[0 0 0 ... 0 0 0],"GAT_VGAE(
  (gat1): GATConv(889, 64, heads=32)
  (gat2): GATConv(2048, 64, heads=1)
  (mu_net): Linear(in_features=64, out_features=64, bias=True)
  (log_var_net): Linear(in_features=64, out_features=64, bias=True)
  (decoder): Linear(in_features=64, out_features=399424, bias=True)
)"
054774ba-415a-4983-9932-33cb904beb40,64,64,0.005,4,0.527702222385613,0.051655629139072845,0.059001512859304085,0.05508474576271186,1322,1510,319,[0 0 0 ... 0 0 0],"GAT_VGAE(
  (gat1): GATConv(889, 64, heads=4)
  (gat2): GATConv(256, 64, heads=1)
  (mu_net): Linear(in_features=64, out_features=64, bias=True)
  (log_var_net): Linear(in_features=64, out_features=64, bias=True)
  (decoder): Linear(in_features=64, out_features=399424, bias=True)
)"
faba6eee-0754-4b1a-af1b-436f685f3899,64,64,0.005,4,0.527702222385613,0.051655629139072845,0.059001512859304085,0.05508474576271186,1322,1510,316,[0 0 0 ... 0 0 0],"GAT_VGAE(
  (gat1): GATConv(889, 64, heads=4)
  (gat2): GATConv(256, 64, heads=1)
  (mu_net): Linear(in_features=64, out_features=64, bias=True)
  (log_var_net): Linear(in_features=64, out_features=64, bias=True)
  (decoder): Linear(in_features=64, out_features=399424, bias=True)
)"
4316287e-b206-474e-b46a-b3424e3f35be,64,64,0.005,4,0.527702222385613,0.051655629139072845,0.059001512859304085,0.05508474576271186,1322,1510,309,[0 0 0 ... 0 0 0],"GAT_VGAE(
  (gat1): GATConv(889, 64, heads=4)
  (gat2): GATConv(256, 64, heads=1)
  (mu_net): Linear(in_features=64, out_features=64, bias=True)
  (log_var_net): Linear(in_features=64, out_features=64, bias=True)
  (decoder): Linear(in_features=64, out_features=399424, bias=True)
)"
75ca86ae-96ed-44e3-b52a-3f0749a44bd0,64,64,0.005,4,0.527702222385613,0.051655629139072845,0.059001512859304085,0.05508474576271186,1322,1510,319,[0 1 0 ... 0 0 0],"GAT_VGAE(
  (gat1): GATConv(889, 64, heads=4)
  (gat2): GATConv(256, 64, heads=1)
  (mu_net): Linear(in_features=64, out_features=64, bias=True)
  (log_var_net): Linear(in_features=64, out_features=64, bias=True)
  (decoder): Linear(in_features=64, out_features=399424, bias=True)
)"
2fde0714-5f3c-4232-9002-a61e4b60be33,64,16,0.001,4,0.6837350571725571,0.045258072718026954,0.6846153846153846,0.0849034104459814,260,3933,133,[0 0 0 ... 0 0 0],"GAT_VGAE(
  (gat1): GATConv(1000, 64, heads=4)
  (gat2): GATConv(256, 16, heads=1)
  (mu_net): Linear(in_features=16, out_features=16, bias=True)
  (log_var_net): Linear(in_features=16, out_features=16, bias=True)
  (decoder): Linear(in_features=16, out_features=12100, bias=True)
)"
b6c57758-ccff-4bbc-ad6f-e6042b0cd98c,64,16,0.005,4,0.7254742723492724,0.05513196480938416,0.7230769230769231,0.10245231607629428,260,3410,138,[1 0 0 ... 0 0 0],"GAT_VGAE(
  (gat1): GATConv(1000, 64, heads=4)
  (gat2): GATConv(256, 16, heads=1)
  (mu_net): Linear(in_features=16, out_features=16, bias=True)
  (log_var_net): Linear(in_features=16, out_features=16, bias=True)
  (decoder): Linear(in_features=16, out_features=12100, bias=True)
)"
448f3537-1a4f-4b9b-ac01-8ef3b4600eb0,64,16,0.0001,4,0.5335498960498961,0.024423804609563123,0.5461538461538461,0.046756667764241026,260,5814,71,[0 0 0 ... 0 0 0],"GAT_VGAE(
  (gat1): GATConv(1000, 64, heads=4)
  (gat2): GATConv(256, 16, heads=1)
  (mu_net): Linear(in_features=16, out_features=16, bias=True)
  (log_var_net): Linear(in_features=16, out_features=16, bias=True)
  (decoder): Linear(in_features=16, out_features=12100, bias=True)
)"
d25fbf5f-9c63-4d7a-b7f8-c6a44e41925b,64,16,0.0005,4,0.5864994802494803,0.030327374974894558,0.5807692307692308,0.05764458866195839,260,4979,91,[0 0 0 ... 0 0 0],"GAT_VGAE(
  (gat1): GATConv(1000, 64, heads=4)
  (gat2): GATConv(256, 16, heads=1)
  (mu_net): Linear(in_features=16, out_features=16, bias=True)
  (log_var_net): Linear(in_features=16, out_features=16, bias=True)
  (decoder): Linear(in_features=16, out_features=12100, bias=True)
)"
64dec78e-9068-47fb-b46a-d3abd2e5ab96,64,64,0.005,4,0.7254742723492724,0.05513196480938416,0.7230769230769231,0.10245231607629428,260,3410,128,[0 0 0 ... 0 0 0],"GAT_VGAE(
  (gat1): GATConv(1000, 64, heads=4)
  (gat2): GATConv(256, 64, heads=1)
  (mu_net): Linear(in_features=64, out_features=64, bias=True)
  (log_var_net): Linear(in_features=64, out_features=64, bias=True)
  (decoder): Linear(in_features=64, out_features=12100, bias=True)
)"
3a248228-ae60-43bc-8b1d-4fe0f631c1ef,64,64,0.005,4,0.7254742723492724,0.05513196480938416,0.7230769230769231,0.10245231607629428,260,3410,144,[0 0 0 ... 0 0 0],"GAT_VGAE(
  (gat1): GATConv(1000, 64, heads=4)
  (gat2): GATConv(256, 64, heads=1)
  (mu_net): Linear(in_features=64, out_features=64, bias=True)
  (log_var_net): Linear(in_features=64, out_features=64, bias=True)
  (decoder): Linear(in_features=64, out_features=12100, bias=True)
)"
45891723-c2ce-4199-811b-816cd9b4891a,64,64,0.005,4,0.7254742723492724,0.05513196480938416,0.7230769230769231,0.10245231607629428,260,3410,135,[0 0 0 ... 0 0 0],"GAT_VGAE(
  (gat1): GATConv(1000, 64, heads=4)
  (gat2): GATConv(256, 64, heads=1)
  (mu_net): Linear(in_features=64, out_features=64, bias=True)
  (log_var_net): Linear(in_features=64, out_features=64, bias=True)
  (decoder): Linear(in_features=64, out_features=12100, bias=True)
)"
b4106d02-71ab-4ff4-b169-27a31a13e2f1,64,64,0.005,4,0.7254742723492724,0.05513196480938416,0.7230769230769231,0.10245231607629428,260,3410,136,[0 0 0 ... 0 0 0],"GAT_VGAE(
  (gat1): GATConv(1000, 64, heads=4)
  (gat2): GATConv(256, 64, heads=1)
  (mu_net): Linear(in_features=64, out_features=64, bias=True)
  (log_var_net): Linear(in_features=64, out_features=64, bias=True)
  (decoder): Linear(in_features=64, out_features=12100, bias=True)
)"
0a47965e-aaaa-4571-9336-774fe4fdd879,64,64,0.005,2,0.7254742723492724,0.05513196480938416,0.7230769230769231,0.10245231607629428,260,3410,134,[0 0 0 ... 0 0 0],"GAT_VGAE(
  (gat1): GATConv(1000, 64, heads=2)
  (gat2): GATConv(128, 64, heads=1)
  (mu_net): Linear(in_features=64, out_features=64, bias=True)
  (log_var_net): Linear(in_features=64, out_features=64, bias=True)
  (decoder): Linear(in_features=64, out_features=12100, bias=True)
)"
f68d567e-e6e4-4178-957d-faa5eb472ae8,64,64,0.005,4,0.7254742723492724,0.05513196480938416,0.7230769230769231,0.10245231607629428,260,3410,133,[0 0 0 ... 0 0 0],"GAT_VGAE(
  (gat1): GATConv(1000, 64, heads=4)
  (gat2): GATConv(256, 64, heads=1)
  (mu_net): Linear(in_features=64, out_features=64, bias=True)
  (log_var_net): Linear(in_features=64, out_features=64, bias=True)
  (decoder): Linear(in_features=64, out_features=12100, bias=True)
)"
f1ca6e92-bee6-4428-a488-0601ae3cc122,64,64,0.005,8,0.7254742723492724,0.05513196480938416,0.7230769230769231,0.10245231607629428,260,3410,129,[0 0 0 ... 0 0 0],"GAT_VGAE(
  (gat1): GATConv(1000, 64, heads=8)
  (gat2): GATConv(512, 64, heads=1)
  (mu_net): Linear(in_features=64, out_features=64, bias=True)
  (log_var_net): Linear(in_features=64, out_features=64, bias=True)
  (decoder): Linear(in_features=64, out_features=12100, bias=True)
)"
a76d8e2a-bb80-4ec9-b238-91bdd52dcfbc,64,64,0.005,16,0.7254742723492724,0.05513196480938416,0.7230769230769231,0.10245231607629428,260,3410,134,[0 0 0 ... 0 0 0],"GAT_VGAE(
  (gat1): GATConv(1000, 64, heads=16)
  (gat2): GATConv(1024, 64, heads=1)
  (mu_net): Linear(in_features=64, out_features=64, bias=True)
  (log_var_net): Linear(in_features=64, out_features=64, bias=True)
  (decoder): Linear(in_features=64, out_features=12100, bias=True)
)"
111023ca-9aa9-4f3c-81a2-5fcaf070cbd0,64,64,0.005,32,0.7254742723492724,0.05513196480938416,0.7230769230769231,0.10245231607629428,260,3410,140,[0 0 0 ... 0 0 0],"GAT_VGAE(
  (gat1): GATConv(1000, 64, heads=32)
  (gat2): GATConv(2048, 64, heads=1)
  (mu_net): Linear(in_features=64, out_features=64, bias=True)
  (log_var_net): Linear(in_features=64, out_features=64, bias=True)
  (decoder): Linear(in_features=64, out_features=12100, bias=True)
)"
c318d68c-cb99-49a0-8e2f-f98d4f445504,64,8,0.005,4,0.527702222385613,0.051655629139072845,0.059001512859304085,0.05508474576271186,1322,1510,335,[0 1 0 ... 0 0 0],"GAT_VGAE(
  (gat1): GATConv(889, 64, heads=4)
  (gat2): GATConv(256, 8, heads=1)
  (mu_net): Linear(in_features=8, out_features=8, bias=True)
  (log_var_net): Linear(in_features=8, out_features=8, bias=True)
  (decoder): Linear(in_features=8, out_features=399424, bias=True)
)"
766cc916-a4ed-49a9-9ef0-80b4e30795e2,64,16,0.005,4,0.527702222385613,0.051655629139072845,0.059001512859304085,0.05508474576271186,1322,1510,323,[0 0 0 ... 0 0 0],"GAT_VGAE(
  (gat1): GATConv(889, 64, heads=4)
  (gat2): GATConv(256, 16, heads=1)
  (mu_net): Linear(in_features=16, out_features=16, bias=True)
  (log_var_net): Linear(in_features=16, out_features=16, bias=True)
  (decoder): Linear(in_features=16, out_features=399424, bias=True)
)"
9f48df63-cb3b-4424-bb0f-e6017dae3ee9,64,32,0.005,4,0.527702222385613,0.051655629139072845,0.059001512859304085,0.05508474576271186,1322,1510,339,[0 0 0 ... 0 0 0],"GAT_VGAE(
  (gat1): GATConv(889, 64, heads=4)
  (gat2): GATConv(256, 32, heads=1)
  (mu_net): Linear(in_features=32, out_features=32, bias=True)
  (log_var_net): Linear(in_features=32, out_features=32, bias=True)
  (decoder): Linear(in_features=32, out_features=399424, bias=True)
)"
796d540e-aa6d-4522-8cba-4590343f78e0,64,64,0.005,4,0.527702222385613,0.051655629139072845,0.059001512859304085,0.05508474576271186,1322,1510,321,[0 0 0 ... 0 0 0],"GAT_VGAE(
  (gat1): GATConv(889, 64, heads=4)
  (gat2): GATConv(256, 64, heads=1)
  (mu_net): Linear(in_features=64, out_features=64, bias=True)
  (log_var_net): Linear(in_features=64, out_features=64, bias=True)
  (decoder): Linear(in_features=64, out_features=399424, bias=True)
)"
e05499c0-f8c1-47a1-b2b7-d6f877874f4f,64,8,0.005,4,0.7645182968204685,0.0071474755425615655,0.710195530726257,0.014152518786529362,2864,284576,2058,[0 0 0 ... 0 0 0],"GAT_VGAE(
  (gat1): GATConv(1000, 64, heads=4)
  (gat2): GATConv(256, 8, heads=1)
  (mu_net): Linear(in_features=8, out_features=8, bias=True)
  (log_var_net): Linear(in_features=8, out_features=8, bias=True)
  (decoder): Linear(in_features=8, out_features=1562500, bias=True)
)"
0014c130-fea7-4bde-a032-177a72fa7327,64,16,0.005,4,0.7645182968204685,0.0071474755425615655,0.710195530726257,0.014152518786529362,2864,284576,2061,[0 0 0 ... 0 0 0],"GAT_VGAE(
  (gat1): GATConv(1000, 64, heads=4)
  (gat2): GATConv(256, 16, heads=1)
  (mu_net): Linear(in_features=16, out_features=16, bias=True)
  (log_var_net): Linear(in_features=16, out_features=16, bias=True)
  (decoder): Linear(in_features=16, out_features=1562500, bias=True)
)"
27b885dd-208c-4da1-b9c7-28c66f7b50e6,64,32,0.005,4,0.7645182968204685,0.0071474755425615655,0.710195530726257,0.014152518786529362,2864,284576,2049,[0 0 0 ... 0 0 0],"GAT_VGAE(
  (gat1): GATConv(1000, 64, heads=4)
  (gat2): GATConv(256, 32, heads=1)
  (mu_net): Linear(in_features=32, out_features=32, bias=True)
  (log_var_net): Linear(in_features=32, out_features=32, bias=True)
  (decoder): Linear(in_features=32, out_features=1562500, bias=True)
)"
3a5bac2b-78c2-4edb-be7f-9538c7cb0585,64,64,0.005,4,0.7645182968204685,0.0071474755425615655,0.710195530726257,0.014152518786529362,2864,284576,2057,[0 0 0 ... 0 0 0],"GAT_VGAE(
  (gat1): GATConv(1000, 64, heads=4)
  (gat2): GATConv(256, 64, heads=1)
  (mu_net): Linear(in_features=64, out_features=64, bias=True)
  (log_var_net): Linear(in_features=64, out_features=64, bias=True)
  (decoder): Linear(in_features=64, out_features=1562500, bias=True)
)"
5d8bfe60-8609-40e2-af7f-40d296e51fec,64,16,0.005,4,0.7645182968204685,0.0071474755425615655,0.710195530726257,0.014152518786529362,2864,284576,2058,[0 0 0 ... 0 0 0],"GAT_VGAE(
  (gat1): GATConv(1000, 64, heads=4)
  (gat2): GATConv(256, 16, heads=1)
  (mu_net): Linear(in_features=16, out_features=16, bias=True)
  (log_var_net): Linear(in_features=16, out_features=16, bias=True)
  (decoder): Linear(in_features=16, out_features=1562500, bias=True)
)"
5ecef0df-814a-4b3f-9185-a1c783d52dcc,64,16,0.005,4,0.5207110081478186,0.0019130397572453234,0.5307262569832403,0.003812337677809812,2864,784789.3,0,0,GAT_VGAE
5ecef0df-814a-4b3f-9185-a1c783d52dcc,64,16,0.005,4,0.5622962014174173,0.002140106777284861,0.6225558659217877,0.00426555023923445,2864,788470.1,0,0,GAT_VGAE
5ecef0df-814a-4b3f-9185-a1c783d52dcc,64,16,0.005,4,0.5992164058485154,0.002338198746893486,0.6997206703910615,0.004660822807331725,2864,790924.1,0,0,GAT_VGAE
…
7c7de29c-4cd3-4c20-a8ab-a70dec0dccce,64,16,0.005,4,0.6451864358223772,0.022353714661406968,0.33663366336633666,0.04192355117139334,202,85587.61,0,0,GAT_VGAE
7c7de29c-4cd3-4c20-a8ab-a70dec0dccce,64,16,0.005,4,0.6465443712828005,0.022353714661406968,0.33663366336633666,0.04192355117139334,202,81672.766,0,0,GAT_VGAE
7c7de29c-4cd3-4c20-a8ab-a70dec0dccce,64,16,0.005,4,0.6452059441197695,0.022353714661406968,0.33663366336633666,0.04192355117139334,202,75575.734,0,0,GAT_VGAE
787cce93-89cb-430c-9f8a-fcebe0a8d4d9,64,8,0.005,4,0.5195499045625659,0.04819277108433735,0.039603960396039604,0.043478260869565216,202,166,50,[1 0 0 ... 0 0 0],"GAT_VGAE(
  (gat1): GATConv(847, 64, heads=4)
  (gat2): GATConv(256, 8, heads=1)
  (mu_net): Linear(in_features=8, out_features=8, bias=True)
  (log_var_net): Linear(in_features=8, out_features=8, bias=True)
  (decoder): Linear(in_features=8, out_features=313600, bias=True)
)"
6d2961fc-c513-4d35-82bf-575913eedf25,64,16,0.005,4,0.5195499045625659,0.04819277108433735,0.039603960396039604,0.043478260869565216,202,166,45,[1 0 0 ... 0 0 0],"GAT_VGAE(
  (gat1): GATConv(847, 64, heads=4)
  (gat2): GATConv(256, 16, heads=1)
  (mu_net): Linear(in_features=16, out_features=16, bias=True)
  (log_var_net): Linear(in_features=16, out_features=16, bias=True)
  (decoder): Linear(in_features=16, out_features=313600, bias=True)
)"
86e5dc79-8a93-445d-b379-f28e8e37cbf9,64,32,0.005,4,0.5195499045625659,0.04819277108433735,0.039603960396039604,0.043478260869565216,202,166,38,[0 0 0 ... 0 0 0],"GAT_VGAE(
  (gat1): GATConv(847, 64, heads=4)
  (gat2): GATConv(256, 32, heads=1)
  (mu_net): Linear(in_features=32, out_features=32, bias=True)
  (log_var_net): Linear(in_features=32, out_features=32, bias=True)
  (decoder): Linear(in_features=32, out_features=313600, bias=True)
)"
520240ed-b673-401e-83b0-6ff0dd02b6b1,64,64,0.005,4,0.5195499045625659,0.04819277108433735,0.039603960396039604,0.043478260869565216,202,166,49,[1 1 0 ... 0 0 0],"GAT_VGAE(
  (gat1): GATConv(847, 64, heads=4)
  (gat2): GATConv(256, 64, heads=1)
  (mu_net): Linear(in_features=64, out_features=64, bias=True)
  (log_var_net): Linear(in_features=64, out_features=64, bias=True)
  (decoder): Linear(in_features=64, out_features=313600, bias=True)
)"
99638dbc-ec5c-45de-8690-9771edf7086c,64,16,0.001,4,0.5097176436959072,0.0007921240239900419,0.10396039603960396,0.0015722681840302474,202,26511,47,[0 0 0 ... 0 0 0],"GAT_VGAE(
  (gat1): GATConv(847, 64, heads=4)
  (gat2): GATConv(256, 16, heads=1)
  (mu_net): Linear(in_features=16, out_features=16, bias=True)
  (log_var_net): Linear(in_features=16, out_features=16, bias=True)
  (decoder): Linear(in_features=16, out_features=313600, bias=True)
)"
dcb9be60-239b-47fc-8b51-c07400581932,64,16,0.005,4,0.5195499045625659,0.04819277108433735,0.039603960396039604,0.043478260869565216,202,166,44,[0 0 0 ... 0 0 0],"GAT_VGAE(
  (gat1): GATConv(847, 64, heads=4)
  (gat2): GATConv(256, 16, heads=1)
  (mu_net): Linear(in_features=16, out_features=16, bias=True)
  (log_var_net): Linear(in_features=16, out_features=16, bias=True)
  (decoder): Linear(in_features=16, out_features=313600, bias=True)
)"
898ed671-5b9a-46cf-a926-b671ce6ae6c1,64,16,0.0001,4,0.5163571150061994,0.0006906758756783424,0.48514851485148514,0.001379388002139459,202,141890,40,[0 0 0 ... 0 0 0],"GAT_VGAE(
  (gat1): GATConv(847, 64, heads=4)
  (gat2): GATConv(256, 16, heads=1)
  (mu_net): Linear(in_features=16, out_features=16, bias=True)
  (log_var_net): Linear(in_features=16, out_features=16, bias=True)
  (decoder): Linear(in_features=16, out_features=313600, bias=True)
)"
efc78102-4c9f-440b-8e4a-635a4657697b,64,16,0.0005,4,0.49387215155953595,0.0006173374344755881,0.28217821782178215,0.0012319795966887848,202,92332,47,[0 0 0 ... 0 0 0],"GAT_VGAE(
  (gat1): GATConv(847, 64, heads=4)
  (gat2): GATConv(256, 16, heads=1)
  (mu_net): Linear(in_features=16, out_features=16, bias=True)
  (log_var_net): Linear(in_features=16, out_features=16, bias=True)
  (decoder): Linear(in_features=16, out_features=313600, bias=True)
)"
02c1ccd0-cc96-48ce-8455-92ad8fb106e7,64,64,0.005,2,0.5195499045625659,0.04819277108433735,0.039603960396039604,0.043478260869565216,202,166,50,[0 0 0 ... 0 0 0],"GAT_VGAE(
  (gat1): GATConv(847, 64, heads=2)
  (gat2): GATConv(128, 64, heads=1)
  (mu_net): Linear(in_features=64, out_features=64, bias=True)
  (log_var_net): Linear(in_features=64, out_features=64, bias=True)
  (decoder): Linear(in_features=64, out_features=313600, bias=True)
)"
17c0ffd4-d4a9-4ab7-8722-73fd332e6175,64,64,0.005,4,0.5195499045625659,0.04819277108433735,0.039603960396039604,0.043478260869565216,202,166,50,[0 0 0 ... 0 0 0],"GAT_VGAE(
  (gat1): GATConv(847, 64, heads=4)
  (gat2): GATConv(256, 64, heads=1)
  (mu_net): Linear(in_features=64, out_features=64, bias=True)
  (log_var_net): Linear(in_features=64, out_features=64, bias=True)
  (decoder): Linear(in_features=64, out_features=313600, bias=True)
)"
70cf76a3-c871-4fc2-8aaf-58cc3f638724,64,64,0.005,8,0.5195499045625659,0.04819277108433735,0.039603960396039604,0.043478260869565216,202,166,48,[0 0 0 ... 0 0 0],"GAT_VGAE(
  (gat1): GATConv(847, 64, heads=8)
  (gat2): GATConv(512, 64, heads=1)
  (mu_net): Linear(in_features=64, out_features=64, bias=True)
  (log_var_net): Linear(in_features=64, out_features=64, bias=True)
  (decoder): Linear(in_features=64, out_features=313600, bias=True)
)"
bec69201-93ee-427d-a1cd-3123ef7f1355,64,64,0.005,16,0.5195499045625659,0.04819277108433735,0.039603960396039604,0.043478260869565216,202,166,53,[0 0 0 ... 0 0 0],"GAT_VGAE(
  (gat1): GATConv(847, 64, heads=16)
  (gat2): GATConv(1024, 64, heads=1)
  (mu_net): Linear(in_features=64, out_features=64, bias=True)
  (log_var_net): Linear(in_features=64, out_features=64, bias=True)
  (decoder): Linear(in_features=64, out_features=313600, bias=True)
)"
b422c7d9-9a0a-4c70-9e7b-ae34130ef7e9,64,64,0.005,32,0.5195499045625659,0.04819277108433735,0.039603960396039604,0.043478260869565216,202,166,39,[0 0 0 ... 0 0 0],"GAT_VGAE(
  (gat1): GATConv(847, 64, heads=32)
  (gat2): GATConv(2048, 64, heads=1)
  (mu_net): Linear(in_features=64, out_features=64, bias=True)
  (log_var_net): Linear(in_features=64, out_features=64, bias=True)
  (decoder): Linear(in_features=64, out_features=313600, bias=True)
)"
a5d4283a-cf5b-4cf1-9374-c602ac82f996,64,16,0.005,4,0.5846865062418022,0.000841382270873578,0.48514851485148514,0.0016798512131782613,202,151733.36,0,0,GAT_VGAE
a5d4283a-cf5b-4cf1-9374-c602ac82f996,64,16,0.005,4,0.6193270660992927,0.0009891311937067983,0.4207920792079208,0.0019736231076437263,202,148010.27,0,0,GAT_VGAE
a5d4283a-cf5b-4cf1-9374-c602ac82f996,64,16,0.005,4,0.6373663334112402,0.0013218989077810274,0.39603960396039606,0.0026350027173465524,202,144894.28,0,0,GAT_VGAE
…
4e689764-3b71-4ad7-947b-9c2b7365e532,128,32,0.0005,4,0.6500664306133055,0.03395585738539898,0.6153846153846154,0.06436041834271923,260,5931.9595,0,0,GAT_VGAE
4e689764-3b71-4ad7-947b-9c2b7365e532,128,32,0.0005,4,0.6447474337318088,0.03390196501835457,0.6038461538461538,0.0641995501942343,260,5925.4062,0,0,GAT_VGAE
4e689764-3b71-4ad7-947b-9c2b7365e532,128,32,0.0005,4,0.6569196660602911,0.03542881831929142,0.6307692307692307,0.06708938433217426,260,5926.3984,0,0,GAT_VGAE
1e0f4e2a-a987-4f25-bff4-9b6f2c56f05f,64,16,0.01,4,0.501240151219527,0.012485970819304153,0.01966850828729282,0.015275036471294946,9050,14256,1788,[0 0 0 ... 0 0 0],"GAT_VGAE(
  (gat1): GATConv(758, 64, heads=4)
  (gat2): GATConv(256, 16, heads=1)
  (mu_net): Linear(in_features=16, out_features=16, bias=True)
  (log_var_net): Linear(in_features=16, out_features=16, bias=True)
  (decoder): Linear(in_features=16, out_features=828100, bias=True)
)"
ef7896a4-4095-4ff5-b150-baf1688981b5,64,16,0.01,4,0.7254742723492724,0.05513196480938416,0.7230769230769231,0.10245231607629428,260,3410,134,[0 0 0 ... 0 0 0],"GAT_VGAE(
  (gat1): GATConv(1000, 64, heads=4)
  (gat2): GATConv(256, 16, heads=1)
  (mu_net): Linear(in_features=16, out_features=16, bias=True)
  (log_var_net): Linear(in_features=16, out_features=16, bias=True)
  (decoder): Linear(in_features=16, out_features=12100, bias=True)
)"
1fed2f86-9f53-4717-8e64-bcccb7fe7da4,64,16,0.01,4,0.7254742723492724,0.05513196480938416,0.7230769230769231,0.10245231607629428,260,3410,35,"[0 0 1 0 0 0 0 0 0 0 0 0 0 0 0 0 0 0 0 0 0 0 0 0 0 0 0 0 0 0 0 0 0 0 0 0 0
 0 0 0 0 0 0 0 0 0 0 0 0 0 0 0 0 0 0 0 0 0 0 0 0 0 0 1 0 0 0 0 0 0 0 0 0 0
 0 0 0 0 0 0 0 0 0 0 0 0 0 0 0 0 0 0 0 0 0 0 0 1 0 0 1 0 0 0 0 0 0 0 0 0 0
…
 0 0 0 0 0 0 0 0 0 1 0 1 0 0 0 0 0 1 0 0 0 1 0 0 1 0 0 0 0 1 0 0 0 0 0 0 0
 0 0 0 0 0 0 0 0 0 1 0 0 0 0 0 0 0 0 0 0 0 0 0 0 0 0 0 1 0 0 0 0 0 1 0 0 0
 1 0 0 0 0 0 0 0 0 0 0 0 0 1 0 0 0 0 0 0 0 0 1 0 0 0 0 0 0 1 0 0 0 0 0 0 0
 0 0 0 1 0 0 1 1 0 0 0 0 0 0 0 0 0 0 0 0 1 1 0 0 0 0 1 0 0 0 0 0 0 0 0 0 0
 0 0 0 1 0 0 0 0 0 0 0 0 0 0 0 0 0 0 0 0 0 1 0 0 0 0 0 0 0 0 0 0 0 0 0 0 0
 0 0 0 0 0 0 0 0 0 0 0 0 0 0 1 0 0 0 0 0 0 0 1 0 0 0 0 0 0 0 0 0 0 0 0 0 0
 0 0 0 0 0 0 0 0 0 0 0 0 0 0 0 1 0 0 0 0 0 0 0 0 0 0 0 1 0 0 0 0 0 0 0 0 0
 0 0 0 0 0 0 0 0 0 0 0 0 0 0 0 1 0 0 0]","GAT_VGAE(
  (gat1): GATConv(1000, 64, heads=4)
  (gat2): GATConv(256, 16, heads=1)
  (mu_net): Linear(in_features=16, out_features=16, bias=True)
  (log_var_net): Linear(in_features=16, out_features=16, bias=True)
  (decoder): Linear(in_features=16, out_features=12100, bias=True)
)"
17d2faf8-6fb1-4cb5-a0b1-2bbcab3b18a2,64,16,0.01,4,0.7254742723492724,0.05513196480938416,0.7230769230769231,0.10245231607629428,260,3410,142,[0 0 0 ... 0 0 0],"GAT_VGAE(
  (gat1): GATConv(1000, 64, heads=4)
  (gat2): GATConv(256, 16, heads=1)
  (mu_net): Linear(in_features=16, out_features=16, bias=True)
  (log_var_net): Linear(in_features=16, out_features=16, bias=True)
  (decoder): Linear(in_features=16, out_features=12100, bias=True)
)"
949b8acd-2264-4b6d-a8f7-563fdaaf30b3,64,16,0.01,4,0.7254742723492724,0.05513196480938416,0.7230769230769231,0.10245231607629428,260,3410,128,[0 0 0 ... 0 0 0],"GAT_VGAE(
  (gat1): GATConv(1000, 64, heads=4)
  (gat2): GATConv(256, 16, heads=1)
  (mu_net): Linear(in_features=16, out_features=16, bias=True)
  (log_var_net): Linear(in_features=16, out_features=16, bias=True)
  (decoder): Linear(in_features=16, out_features=12100, bias=True)
)"
427673d9-1457-4f21-b7ca-c62940a0af26,64,16,0.01,4,0.7254742723492724,0.05513196480938416,0.7230769230769231,0.10245231607629428,260,3410,16,"[0 0 0 0 0 0 0 0 0 0 0 0 0 1 0 0 0 0 0 0 0 0 0 0 0 0 0 0 0 0 0 0 0 1 0 0 0
 0 0 0 0 0 0 1 0 0 0 0 1 0 0 0 0 0 0 0 0 0 0 0 0 0 0 0 1 1 0 1 0 0 0 0 0 0
 0 0 0 0 0 0 0 0 0 0 0 0 0 0 0 0 0 0 0 0 0 0 0 0 0 0 1 0 0 0 0 0 0 1 0 0 0
 0 0 0 0 0 0 0 0 0 0 0 0 0 0 0 0 0 0 0 0 0 0 0 0 0 0 0 0 0 0 0 0 0 0 0 0 0
 0 0 0 0 0 0 0 0 1 0 0 0 0 0 0 0 0 0 0 0 0 0 0 0 0 0 0 0 0 0 0 0 0 0 0 0 0
 0 0 0 0 0 0 0 0 0 1 1 0 0 0 0 0 0 0 0 0 0 0 0 0 0 0 0 0 0 0 0 0 0 0 0 0 0
 1 0 0 1 0 0 0 1 0 0 0 0 0 0 0 1 0 0 0 0 0 0 0 0 0 0 0 0 0 0 0 0 0 0 0 0 0
 0]","GAT_VGAE(
  (gat1): GATConv(1000, 64, heads=4)
  (gat2): GATConv(256, 16, heads=1)
  (mu_net): Linear(in_features=16, out_features=16, bias=True)
  (log_var_net): Linear(in_features=16, out_features=16, bias=True)
  (decoder): Linear(in_features=16, out_features=12100, bias=True)
)"
7dd5b294-c301-471e-b904-2993b6063995,64,16,0.01,4,0.7254742723492724,0.05513196480938416,0.7230769230769231,0.10245231607629428,260,3410,188,[0 0 0 ... 0 1 0],"GAT_VGAE(
  (gat1): GATConv(1000, 64, heads=4)
  (gat2): GATConv(256, 16, heads=1)
  (mu_net): Linear(in_features=16, out_features=16, bias=True)
  (log_var_net): Linear(in_features=16, out_features=16, bias=True)
  (decoder): Linear(in_features=16, out_features=12100, bias=True)
)"
4f240901-a731-4f12-84e2-6c057aa52005,512,32,0.0005,16,0.5158557663555456,0.04080774084981069,0.4837905236907731,0.07526673132880699,401,4967.1826,0,0,GAT_VGAE,1.14713216957606
4f240901-a731-4f12-84e2-6c057aa52005,512,32,0.0005,16,0.47385469028751176,0.038097157831082445,0.4713216957605985,0.07049608355091384,401,4994.782,0,0,GAT_VGAE,0.773067331670823
…
